C4(novel).pth (torch, 343474 bytes, 10 tensors)

conv1.weight f4 [32, 1, 5, 5]
0	0x3ddab4ca	0.10679014
1	0x3ea42931	0.32062677
2	0xbf230342	-0.63676846
3	0xbf20a584	-0.62752557
4	0xbc4f3a93	-0.0126482425
5	0xbfa07256	-1.2534893
6	0xbeaf693e	-0.3425998
7	0xbe149e1f	-0.14513443
8	0x3e8e46c6	0.2778837
9	0xbdf817dd	-0.121139266
10	0xbe2b1f7b	-0.16711228
11	0x3ef51cce	0.4787354
12	0x3e5d34f4	0.21602231
13	0xbdd2c430	-0.10291326
14	0x3e62948f	0.22126983
15	0x3dcc07e1	0.0996244
16	0xbebb626a	-0.3659852
17	0x3dd69d6f	0.10479247
18	0xbe7ad03c	-0.24493498
19	0x3eebae28	0.46031308
20	0x3f0ab5b7	0.54183525
21	0x3dba1083	0.090851806
22	0xbe0747ac	-0.13210934
23	0xbcb9d4ff	-0.022684572
24	0xbdd92046	-0.10601859
25	0x3d3b7296	0.045763575
26	0x3dfc8c6d	0.123314716
27	0xbf0ee6eb	-0.558211
28	0xbece4b8f	-0.40292022
29	0x3edd0c59	0.43173483
30	0x3f660ec7	0.898663
31	0x3f0eb88a	0.55750334
32	0xbed59690	-0.41716433
33	0x3ebf534f	0.37368247
34	0xbef15d7f	-0.47141644
35	0xbe6817b5	-0.22665294
36	0xbe12dd84	-0.14342314
37	0xbe7c42e3	-0.2463489
38	0x3bfe102c	0.0077533927
39	0xbe2e388c	-0.17013758
40	0xbf0dd717	-0.55406326
41	0xbdd0afee	-0.10189806
42	0x3ed4408b	0.41455492
43	0xbd49bd64	-0.049252883
44	0xbda9318b	-0.08261403
45	0xbe88621b	-0.2663735
46	0x3dd3fc81	0.10350896
47	0xbe627868	-0.22116244
48	0x3ea94880	0.33063126
49	0x3f098767	0.5372223
50	0xbfc0639c	-1.5030398
51	0x3da12498	0.07868308
52	0xbd59c8bb	-0.053169947
53	0x3e838bcf	0.25692603
54	0xbf3466dc	-0.7046945
55	0x3ddfc7f6	0.109268114
56	0xbe06047a	-0.13087645
57	0x3c7c0085	0.015380983
58	0xbd9383e6	-0.07202892
59	0xbe010965	-0.1260124
60	0x3dd3858a	0.10328205
61	0x3e9f7503	0.3114396
62	0x3e40dd39	0.1883439
63	0x3deb48b9	0.1148848
64	0x3e22a933	0.15884857
65	0x3ef67fb4	0.48144305
66	0x3cc02434	0.023454763
67	0xbbc0cdd2	-0.0058839107
68	0xbe6b016a	-0.22949758
69	0x3cc0d8ad	0.023540819
70	0x3c9d962c	0.019236647
71	0xbebbfb5d	-0.36715212
72	0xbe40841e	-0.18800399
73	0x3f239c54	0.6391041
74	0x3d116c20	0.035503507
75	0xbf0feac9	-0.5621763
76	0x3ddcba71	0.107777484
77	0xbe3a4a68	-0.18192446
78	0x3e135601	0.14388277
79	0x3e46f48b	0.19429223
80	0x3d11ce67	0.03559723
81	0xbbdafcf8	-0.0066829883
82	0x3e27c9c5	0.16385563
83	0x3e7e7e1a	0.24852791
84	0x3edb7029	0.4285901
85	0x3de0f6d6	0.1098458
86	0x3e84695d	0.25861636
87	0xbe50c93c	-0.20389265
88	0xbdd69273	-0.10477152
89	0xbd41a693	-0.047278
90	0xbb733d3b	-0.0037115354
91	0x3ee8d4c3	0.45474824
92	0xbdca5f2c	-0.09881434
93	0xbe03126c	-0.12799996
94	0xbdc62e37	-0.096767835
95	0x3e53b422	0.20674184
96	0x3e7f268e	0.24917051
97	0xbf04580f	-0.51696867
98	0x3e39a7cf	0.1813042
99	0x3b98b190	0.004659839
100	0x3e5fd724	0.21859413
101	0x3df5dd87	0.120051436
102	0x3e5ddbc5	0.21665867
103	0x3e9e3b8e	0.30904812
104	0x3cdee332	0.027207945
105	0x3e514d2f	0.204396
106	0x3e4300bd	0.1904325
107	0x3e98e782	0.29864126
108	0xbf164929	-0.58705384
109	0x3ec0f63b	0.3768786
110	0x3e7b1a5d	0.24521776
111	0xbf00096e	-0.5001439
112	0x3db39441	0.087685116
113	0xbe00252f	-0.12514184
114	0xbefc4031	-0.49267724
115	0xbf0a0b77	-0.53923744
116	0x3eafd34f	0.34340903
117	0xbeaa6857	-0.3328273
118	0x3d8c70af	0.0685743
119	0x3d89018b	0.066897474
120	0x3dce8513	0.10083976
121	0x3e034ed7	0.12823044
122	0xbc361b71	-0.011114941
123	0x3e629e9a	0.22130814
124	0xbf0b7eb8	-0.5449023
125	0x3d5a8519	0.053349588
126	0x3e156a0d	0.14591236
127	0xbe3cdd30	-0.18443751
128	0xbf8fa7df	-1.1223105
129	0xbf86c47f	-1.0528716
130	0xbdd87cf3	-0.10570707
131	0x3ed4df96	0.41576833
132	0x3cba1606	0.02271558
133	0x3d55d3f0	0.052204072
134	0xbf16c541	-0.58894736
135	0x3ea7d54e	0.32779926
136	0xbf1b584f	-0.60681623
137	0x3b8e89ca	0.004349922
138	0x3f27b75b	0.65514153
139	0xbd994cd5	-0.07485358
140	0x3e529b77	0.20567118
141	0x3e0c9f19	0.13732566
142	0x3e274689	0.16335501
143	0xbe9e0d9c	-0.30869758
144	0x3e39b190	0.18134141
145	0xbe8ef6b0	-0.27922583
146	0xbd805cf4	-0.062677294
147	0x3f0894d5	0.533521
148	0xbef7c546	-0.48392695
149	0x3d882379	0.06647391
150	0xbe987181	-0.29774097
151	0x3e91829d	0.28419963
152	0x3ef053c2	0.46938902
153	0x3a093a97	0.0005234866
154	0xbf570999	-0.8399902
155	0xbf0e00da	-0.5547005
156	0x3e85047d	0.25979987
157	0xbf344db2	-0.70431054
158	0x3e4e9ca1	0.20176937
159	0x3c27172d	0.010198397
160	0x3e7b33e1	0.24531509
161	0xbe8ab92a	-0.27094394
162	0xbc99870b	-0.018741151
163	0xbe8222fc	-0.25417316
164	0x3ec5b286	0.38612765
165	0x3ca52a20	0.020161688
166	0xbeea9318	-0.4581535
167	0xbe70edd9	-0.23528232
168	0xbe3f156f	-0.1866052
169	0x3e0fc1b9	0.14038743
170	0xbcfff2b6	-0.031243663
171	0xbd2fbca4	-0.04290451
172	0x3e9fe560	0.31229687
173	0x3e169dcc	0.14708632
174	0xbf036ef6	-0.5134119
175	0xbe58635a	-0.2113165
176	0xbf0c57b3	-0.5482132
177	0x3e8669b9	0.26252535
178	0xbd2b3335	-0.04179688
179	0xbe32b45b	-0.17451613
180	0x3d11c312	0.035586424
181	0x3e7b2c52	0.24528626
182	0xbeb43391	-0.35195592
183	0x3e2e4972	0.17020205
184	0xbe3df0af	-0.18548845
185	0xbe0ed577	-0.13948618
186	0x3db7c65b	0.0897338
187	0x3e0e29e2	0.13883165
188	0xbdacf811	-0.084457524
189	0x3dfc6479	0.12323851
190	0x3d5b8d6a	0.05360166
191	0x3e8b8ad9	0.2725437
192	0xbe4e9ee8	-0.20177805
193	0x3e742b63	0.23844676
194	0x3eab9ffb	0.33520493
195	0xbf44b703	-0.76841754
196	0x3cfd9bdf	0.030958114
197	0x3dc5496d	0.096331455
198	0xbe8ddcfb	-0.27707657
199	0x3f013568	0.50472116
200	0x3eca839b	0.39553532
201	0xbec347ee	-0.38140815
202	0x3e00d756	0.12582144
203	0x3e28c3ee	0.16480991
204	0x3ea63e20	0.32469273
205	0x3f0ffe61	0.56247526
206	0x3e82547c	0.2545508
207	0x3f1e8f31	0.6193724
208	0x3efaefdc	0.49011123
209	0x3de36c93	0.11104693
210	0xbf06e871	-0.5269843
211	0x3cc212f2	0.023690674
212	0xbf24460f	-0.641694
213	0xbf087f85	-0.5331958
214	0x3e4fedb8	0.20305526
215	0xbe4b9322	-0.19880345
216	0x3e5bba0b	0.21457689
217	0x3d94d2fa	0.07266803
218	0xbe137ae0	-0.14402342
219	0xbe6ecbba	-0.23319903
220	0xbe8029b4	-0.25031817
221	0x3e9f47b5	0.31109396
222	0xbe7e1448	-0.24812424
223	0xbe503aa3	-0.20334868
224	0xbe772570	-0.24135375
225	0xbf3a7e1b	-0.7284867
226	0x3ea7d022	0.3277598
227	0x3e342bb9	0.17594804
228	0x3e82e45b	0.25564846
229	0x3e0f1681	0.13973428
230	0xbd980d10	-0.074243665
231	0xbdd6d2fe	-0.10489462
232	0x3dc77758	0.0973956
233	0x3ec1716a	0.3778184
234	0x3eec59bc	0.46162212
235	0xbeddbaf7	-0.43306705
236	0x3dafb8ce	0.085801706
237	0x3ed53964	0.41645348
238	0xbe341fa4	-0.17590195
239	0xbf181243	-0.59402865
240	0x3dfb62f4	0.12274733
241	0xbe57ac91	-0.21061923
242	0xbe88ee6c	-0.267444
243	0x3f10cd31	0.565631
244	0xbd850ad9	-0.0649621
245	0xbd9f2366	-0.077704236
246	0x3f06bc90	0.52631474
247	0x3dbef4b1	0.09324015
248	0xbe653ba5	-0.22386034
249	0xbe3c6d04	-0.18400961
250	0x3e4d54cb	0.20051877
251	0x3eb8966a	0.36052257
252	0x3d054a6c	0.032541677
253	0xbd3b2e34	-0.04569836
254	0x3b4eb530	0.0031541102
255	0x3e2c44a9	0.16823067

conv1.bias f4 [32]
0	0xbf197b69	-0.59953934
1	0xbf1c87e0	-0.6114483
2	0xbf42f919	-0.7616134
3	0xbf4101be	-0.75393283
4	0xbdbbb722	-0.09165789
5	0xbf32ca82	-0.6984025
6	0xbd13cdb7	-0.036084857
7	0xbf2c5890	-0.67322636
8	0xbdec05cf	-0.115245454
9	0xbf2d0e52	-0.67599976
10	0xbf4e8ea7	-0.8068642
11	0xbe94f83a	-0.29095632
12	0xbf5f60ff	-0.8725738
13	0xbcf37868	-0.0297205
14	0xbe0f3c09	-0.13987745
15	0xbebfded3	-0.3747469
16	0x3dcfb7bf	0.10142469
17	0xbf001181	-0.5002671
18	0xbd49551a	-0.049153425
19	0xbf154907	-0.58314556
20	0x3dfecdb9	0.12441582
21	0xbeca9ce8	-0.39572835
22	0xbeb3bfd8	-0.35107303
23	0x3de422e9	0.11139471
24	0xbf313e3f	-0.69235605
25	0xbccf7b49	-0.025327342
26	0xbe8b3150	-0.2718606
27	0xbf41469a	-0.75498354
28	0xbeb6f065	-0.3573028
29	0x3e317864	0.17331082
30	0xbf3d0d84	-0.7384875
31	0xbeca1d02	-0.39475256

conv2.weight f4 [32, 32, 5, 5]
0	0x3ef0bc68	0.47018743
1	0x3dd7a618	0.10529727
2	0xbee7e3b8	-0.45290923
3	0x3e7bacf3	0.24577694
4	0x3ea3137f	0.31850812
5	0x3ef68fbf	0.48156545
6	0xbf45071d	-0.7696398
7	0x3e2d004b	0.16894643
8	0xbd760314	-0.06006153
9	0xbe47bac6	-0.19504842
10	0xbe79b07d	-0.24383731
11	0x3db929e2	0.09041192
12	0xbda423f9	-0.08014674
13	0xbe3055ec	-0.17220277
14	0x3e99bc1d	0.30026332
15	0xbe3f695c	-0.18692535
16	0x3e704aff	0.23466109
17	0x3c9b6d44	0.018973
18	0xbd38da80	-0.045130253
19	0x3d90b306	0.07065396
20	0x3ea61655	0.32438913
21	0xbe54c115	-0.2077678
22	0xbe171c75	-0.14756949
23	0xbf7c55e8	-0.9856858
24	0x3e7fe936	0.24991307
25	0x3e838359	0.25686148
26	0x3ebc1110	0.36731768
27	0xbdbdf310	-0.09274876
28	0xbdb85a29	-0.09001572
29	0xbed58e00	-0.417099
30	0x3e9fe793	0.31231365
31	0xbe0b1f8e	-0.13586256
32	0x3e67f939	0.22653665
33	0xbe152e19	-0.14568366
34	0xbe30f498	-0.17280805
35	0xbde03dd6	-0.10949294
36	0x3dd5b9fd	0.10435865
37	0xbc728b96	-0.014803788
38	0xbe9faf71	-0.3118854
39	0xbeb8dc86	-0.36105746
40	0xbe25694e	-0.16153452
41	0xbd8381f5	-0.06421272
42	0x3ea1396e	0.31489128
43	0x3da158ed	0.07878289
44	0xbe2f7621	-0.17134906
45	0x3d2b8d44	0.04188277
46	0xbdb6cdaa	-0.08925946
47	0x3eb520df	0.3537664
48	0x3eca23ae	0.39480346
49	0x3d1b6a2c	0.03794305
50	0xbdb92ed7	-0.09042137
51	0x3f0556ba	0.5208546
52	0x3e068239	0.13135614
53	0xbcf53c8b	-0.029936096
54	0xbe8879f6	-0.2665555
55	0x3f39d4fe	0.72590625
56	0x3ed2032f	0.41018054
57	0xbd4bef00	-0.049788475
58	0xbcad8912	-0.021183524
59	0xbea553f3	-0.3229061
60	0xbf274f75	-0.65355617
61	0xbf268b08	-0.65055895
62	0xbd6ee840	-0.05832696
63	0x3eb15368	0.34633946
64	0xbe870666	-0.2637207
65	0x3e429ad0	0.19004369
66	0x3d42249a	0.047398187
67	0x3e875b1b	0.26436695
68	0xbd5f4e2e	-0.054517917
69	0xbe448d2b	-0.19194476
70	0xbf544666	-0.8291992
71	0x3f0766ef	0.5289144
72	0xbeda841f	-0.42678925
73	0xbdcf8bdb	-0.10134097
74	0xbbb88ca6	-0.005632001
75	0x3deaf445	0.11472372
76	0x3c1086de	0.008821217
77	0xbe0cf0e3	-0.13763766
78	0xbd4b25e1	-0.04959667
79	0x3db4d330	0.08829343
80	0xbe06bba1	-0.13157512
81	0xbea47ff1	-0.32128862
82	0xbe578a8f	-0.2104895
83	0x3da8be85	0.08239464
84	0x3e07b6c7	0.13253318
85	0x3e8bb027	0.2728283
86	0xbeb36503	-0.35038003
87	0x3ef0e262	0.47047716
88	0xbe944743	-0.28960618
89	0xbe5a9e19	-0.21349372
90	0x3ebc8032	0.36816555
91	0xbedee0ac	-0.43530786
92	0x3cea51de	0.02860349
93	0xbf6128ee	-0.8795308
94	0xbe1a7c4c	-0.15086478
95	0x3ecea1e9	0.40357903
96	0x3d219dbd	0.03945707
97	0xbe876c17	-0.26449654
98	0xbe8c28d3	-0.27374896
99	0x3d7d611f	0.0618602
100	0xbf202843	-0.62561435
101	0xbd193cc1	-0.037411455
102	0xbe908a00	-0.28230286
103	0xbea4cbca	-0.3218673
104	0xbe815af3	-0.252647
105	0xbf31b9e8	-0.69424295
106	0xbe5900ee	-0.21191761
107	0x3b81d1f8	0.003961798
108	0x3e88bda0	0.26707172
109	0xbe88a125	-0.26685444
110	0xbefe5765	-0.49676052
111	0x3db41d90	0.08794701
112	0xbede4c26	-0.43417472
113	0x3db046f5	0.08607284
114	0xbcae138d	-0.021249557
115	0x3dc29b68	0.09502298
116	0xbe4ae590	-0.19814134
117	0x3e70d4dc	0.235187
118	0x3e8b22c2	0.27174956
119	0x3df8a25c	0.121403426
120	0xbe6dbbde	-0.23216197
121	0xbf999257	-1.1997784
122	0x3e8fa060	0.28052044
123	0x3dffe44d	0.12494717
124	0x3ea9ce40	0.3316517
125	0xbed18177	-0.40919086
126	0xbd3152c9	-0.04329184
127	0x3ee9d885	0.45673004
128	0x3ea89d7b	0.32932648
129	0x3f207828	0.62683344
130	0xbeb29f28	-0.34887052
131	0x3dafb7ea	0.08580001
132	0x3f193373	0.5984413
133	0xbd6b051a	-0.057377912
134	0xbf8f44a3	-1.1192821
135	0x3edee50b	0.4353412
136	0xbf044c77	-0.51679176
137	0xbeb04bef	-0.34432933
138	0xbe5b458a	-0.21413246
139	0xbb1dadb7	-0.002405984
140	0x3ebfa25c	0.37428558
141	0x3e7c085f	0.24612568
142	0x3e9253d6	0.28579587
143	0xbedf5e42	-0.436266
144	0xbeeeb039	-0.46618822
145	0xbe75e506	-0.24013147
146	0xbfbc0eb8	-1.4691992
147	0xbea7f5f5	-0.32804838
148	0x3ef073cf	0.46963355
149	0x3e060e50	0.13091397
150	0xbd40809b	-0.046997648
151	0xbe29df37	-0.16589056
152	0xbc31ef31	-0.01086025
153	0x3f10ca7d	0.5655897
154	0x3dfe8877	0.12428372
155	0xbf2e8903	-0.68177813
156	0x3e81e56a	0.25370342
157	0x3c735a34	0.014853049
158	0x3e940742	0.28911787
159	0xbf1477e7	-0.57995456
160	0x3ee91d78	0.45530295
161	0x3e0e2e49	0.13884844
162	0xbe8dda6a	-0.277057
163	0x3e5d4f99	0.21612395
164	0x3e822dac	0.2542547
165	0x3ced1b04	0.028943546
166	0xbe3f6fec	-0.18695039
167	0x3eb24ad8	0.34822726
168	0xbdf8d5cf	-0.12150156
169	0xbc9cb652	-0.019129906
170	0x3e6b28c9	0.22964777
171	0xbd08fd51	-0.033444706
172	0x3cb8db40	0.022565484
173	0xbe5b9e69	-0.21447147
174	0x3ea49794	0.32146895
175	0xbebb948d	-0.36636773
176	0xbe82b9c6	-0.2553236
177	0x3d094ef9	0.03352258
178	0x3e5eb842	0.21749976
179	0xbee258e4	-0.44208443
180	0x3c8fa0c6	0.017532717
181	0xbeba120c	-0.36341894
182	0x3e2d2037	0.1690682
183	0xbe0a05a7	-0.13478719
184	0xbf54cca1	-0.8312474
185	0x3e71da8b	0.23618524
186	0xbe09bcf3	-0.13450985
187	0xbcfbdb1e	-0.030744132
188	0xbf10f921	-0.5663014
189	0x3edb1b4e	0.4279427
190	0xbe3d5f72	-0.18493441
191	0x3e3236b0	0.17403674
192	0xbd7c7408	-0.061634094
193	0xbd097cdc	-0.03356634
194	0xbf35b855	-0.70984393
195	0x3e997e15	0.29979005
196	0x3d58860e	0.05286222
197	0x3ea9e595	0.3318297
198	0x3e08889e	0.13333365
199	0xbd82d14d	-0.06387577
200	0x3e26fff1	0.16308571
201	0x3ed9c950	0.42536402
202	0xbf3fd3b2	-0.74932396
203	0xbeea006e	-0.45703453
204	0x3e2a3e7c	0.16625398
205	0xbf2867bc	-0.65783286
206	0x3ed632dc	0.41835678
207	0xbd8a9d84	-0.06768325
208	0xbd106738	-0.035254687
209	0xbe9c92db	-0.30580792
210	0xbe3f86ed	-0.18703814
211	0x3c9955f6	0.018717747
212	0x3d8e84e2	0.06958939
213	0x3d6177eb	0.055046003
214	0xbbf518f4	-0.0074797813
215	0x3eac3b38	0.3363893
216	0xbedd7a03	-0.4325715
217	0xbecd1b13	-0.40059718
218	0xbe8fc1c6	-0.28077525
219	0xbd396eb6	-0.045271598
220	0xbe0e2fab	-0.13885371
221	0xbdd60d86	-0.10451798
222	0x3f0fc2bc	0.56156516
223	0x3e209746	0.15682706
224	0x3d5b1f74	0.053496793
225	0xbee58cdc	-0.4483403
226	0x3d3dacff	0.04630756
227	0x3d43ce67	0.047804262
228	0xbddf059d	-0.108897425
229	0xbe840f47	-0.25792906
230	0x3e511485	0.20417984
231	0x3e21370a	0.15743652
232	0xbe34845c	-0.17628616
233	0x3ebb1f16	0.36547154
234	0x3e01c60a	0.12673202
235	0xbe90aacc	-0.28255308
236	0x3eb27c35	0.34860387
237	0x3c2664a1	0.010155828
238	0x3c51595a	0.012777651
239	0xbd046f5e	-0.03233277
240	0xbf8cddf1	-1.1005231
241	0xbe860d27	-0.2618191
242	0x3e23afe4	0.15985066
243	0x3c9acb34	0.018895723
244	0xbf0827db	-0.53185815
245	0x3e182ae5	0.14860113
246	0x3e15e765	0.14639051
247	0x3eb18207	0.34669515
248	0xbe919fce	-0.28442234
249	0x3dc12b40	0.094320774
250	0x3dbcc3e1	0.092170484
251	0xbf846a7c	-1.0344996
252	0x3eb771e6	0.35829085
253	0x3e332a95	0.17496713
254	0x3eb11263	0.3458434
255	0xbeff2903	-0.49835977

conv2.bias f4 [32]
0	0xbdb879b2	-0.090075865
1	0x3e07ef53	0.13274889
2	0xbc23dd1a	-0.010001445
3	0xbe682c4e	-0.22673151
4	0xbdf11c02	-0.1177292
5	0xbe2fcc10	-0.17167687
6	0xbe0adf7b	-0.13561814
7	0xbe595bc8	-0.21226418
8	0xbd5b246c	-0.05350153
9	0x3c94ca46	0.018162858
10	0xbe8fe451	-0.2810388
11	0xbe82371e	-0.25432676
12	0x3ed02cf5	0.406593
13	0xbdf5cd09	-0.12001998
14	0xbec14713	-0.37749538
15	0xbd42b87b	-0.047539216
16	0xbedf3de6	-0.43601912
17	0xbe807138	-0.2508638
18	0xbe9402e9	-0.2890847
19	0xbea99496	-0.33121175
20	0xbeb5594a	-0.35419685
21	0x3d81a019	0.06329364
22	0x3da18a63	0.07887723
23	0x3da861a1	0.08221746
24	0xbda3cc2f	-0.07997929
25	0xbe506ad6	-0.20353255
26	0xbcf158b7	-0.029461248
27	0x3c15621a	0.0091176275
28	0xbe81a20f	-0.25318953
29	0xbeaff138	-0.34363723
30	0x3d5b2c74	0.05350919
31	0xbe180388	-0.14845097

fc1.weight f4 [42, 1344]
0	0xbc8cbbab	-0.01717933
1	0x3e3f6ccf	0.18693851
2	0x3d75f526	0.060048245
3	0x3e6d53ba	0.2317647
4	0xbf3c3480	-0.7351761
5	0xbdf635d6	-0.12021987
6	0x3e6be6c4	0.23037249
7	0x3d3ddbc2	0.046352156
8	0xbe9866f8	-0.2976606
9	0xbe1ba074	-0.15197927
10	0x3ea670be	0.3250789
11	0x3ef0469f	0.4692888
12	0x3e2ae250	0.16687894
13	0x3d81baab	0.06334432
14	0x3f208b1d	0.6271227
15	0xbed8d137	-0.42347118
16	0x3de79e84	0.11309531
17	0x3f080fa6	0.5314888
18	0xbdb2380e	-0.08702098
19	0x3eba1186	0.36341494
20	0xbea714cf	-0.32633063
21	0x3edda11f	0.43286988
22	0x3eed79a0	0.46381855
23	0xbcdf8ff2	-0.027290318
24	0x3e32cd34	0.17461091
25	0xbe0e085a	-0.13870373
26	0x3d3b47a1	0.045722608
27	0x3d6159ed	0.0550174
28	0x3ebd6450	0.36990595
29	0xbe2957ba	-0.16537371
30	0xba153fc4	-0.0005693401
31	0xbf39e6fa	-0.7261807
32	0x3d357b03	0.044306766
33	0xbbfdb9d2	-0.007743099
34	0x3c5c9b99	0.013464832
35	0xbe50bbff	-0.20384215
36	0x3ded34a2	0.115823045
37	0xbed5bbb8	-0.4174478
38	0x3e26f9b5	0.16306193
39	0xbed4d251	-0.4156671
40	0xbf1f83ce	-0.62310493
41	0xbcfa8745	-0.03058208
42	0xbf309849	-0.6898237
43	0x3ec17c5c	0.3779019
44	0x3e9e8b62	0.30965716
45	0x3ea5ad07	0.32358572
46	0xbe927981	-0.28608325
47	0xbdb6e8af	-0.089310996
48	0xbc62a4e7	-0.013833261
49	0x3e96fc3c	0.29489315
50	0x3e65f69a	0.22457352
51	0xbe5d078f	-0.21584915
52	0xbef4b28d	-0.47792473
53	0xbd9db861	-0.07701183
54	0x3eb4b469	0.35293892
55	0x3e89b262	0.26893908
56	0xbf29d0f3	-0.66334456
57	0xbdc55676	-0.09635632
58	0x3e8c3b70	0.27389097
59	0x3ba1069c	0.004914118
60	0x3f067b9b	0.52532357
61	0x3ead21e1	0.3381491
62	0x3da0a1c8	0.07843357
63	0x3da99fc9	0.0828243
64	0xbef2c9d9	-0.47419623
65	0xbe6ee755	-0.23330434
66	0xbf4b2e59	-0.79367596
67	0x3f13a54a	0.57674086
68	0x3e0b6a70	0.13614821
69	0xbf820f9a	-1.0161011
70	0xbd421fe4	-0.047393695
71	0x3eac80a1	0.33691886
72	0x3f013f46	0.5048717
73	0x3e2bb79b	0.16769259
74	0x3e971362	0.29506975
75	0xbdb1ae11	-0.08675779
76	0xbe86f195	-0.26356187
77	0xbccd55a2	-0.025065247
78	0xbe8d8593	-0.27640972
79	0x3f6a2dd3	0.9147617
80	0x3d209553	0.039204907
81	0x3f1b5684	0.6067889
82	0x3eb0154a	0.34391242
83	0x3e55c3d2	0.20875481
84	0x3f080e23	0.5314657
85	0xbda94f62	-0.08267094
86	0x3eea42bb	0.45754036
87	0xbf29f005	-0.66381866
88	0xbc6d9887	-0.014501697
89	0x3ba665b1	0.0050780405
90	0xbeb7dba0	-0.35909748
91	0x3defc633	0.117077254
92	0x3d8a6c07	0.06758886
93	0x3d2e3bf0	0.04253763
94	0xbf568147	-0.8379101
95	0x3fa99aa9	1.3250324
96	0x3e0cc143	0.13745598
97	0x3e129a49	0.14316668
98	0x3d477261	0.048693065
99	0xbdc589e4	-0.09645441
100	0x3db8c62f	0.090221755
101	0x3d70eeda	0.058821537
102	0xbe4bc26d	-0.19898386
103	0xbd0432b9	-0.032274935
104	0x3f03bee8	0.51463175
105	0x3dacb9e2	0.08433892
106	0xbdbf9006	-0.09353642
107	0x3ceb5a95	0.028729716
108	0xbddf4a78	-0.10902876
109	0x3f432589	0.7622915
110	0xbeacd147	-0.33753416
111	0xbd0aa0b2	-0.033844657
112	0xbe113a10	-0.14182305
113	0x3cd5f373	0.026117062
114	0xbc34d930	-0.01103811
115	0xbeb12903	-0.34601602
116	0x3de7bbf9	0.1131515
117	0xbdeb8816	-0.11500566
118	0xbe67aa58	-0.22623575
119	0x3f2bf84c	0.67175746
120	0xbd2ca84d	-0.04215269
121	0x3ebacda6	0.36485022
122	0xbf488c9b	-0.78339547
123	0x3e017e3a	0.12645808
124	0x3d90fb4e	0.070791826
125	0xbee16b16	-0.44027013
126	0x3f0bdb13	0.54631156
127	0x3efa0cb6	0.48837823
128	0xbf2722b4	-0.6528733
129	0xbeaa90be	-0.33313555
130	0xbf53bd27	-0.827105
131	0x3e04ea3a	0.12979975
132	0x3dc493af	0.09598481
133	0xbee0307a	-0.43786985
134	0x3f06306e	0.5241765
135	0x3e84aecf	0.25914618
136	0x3e2563b3	0.16151313
137	0xbd88af62	-0.066740766
138	0x3e85f3b8	0.26162505
139	0x3e001666	0.12508544
140	0x3c60ae85	0.013713484
141	0xbddeb87c	-0.10875031
142	0xbe81ed2e	-0.25376266
143	0x3e460018	0.19335973
144	0xbee5bb6f	-0.44869563
145	0x3f06bac6	0.52628744
146	0xbd5dbafe	-0.054133408
147	0x3d569379	0.052386735
148	0x3dc5f8c1	0.09666587
149	0xbe3fb83f	-0.18722628
150	0x3ea80ad7	0.3282077
151	0xbfb36016	-1.4013698
152	0x3e9217b9	0.28533724
153	0xbd7de1e0	-0.06198299
154	0xbd280f0d	-0.04102998
155	0x3f1aa544	0.60408425
156	0x3e93f71a	0.2889946
157	0xbdd06ffd	-0.1017761
158	0x3e327852	0.17428711
159	0xbdec77e2	-0.11546303
160	0xbd41a471	-0.047275964
161	0x3e877a6e	0.26460594
162	0xbdc02e9d	-0.09383891
163	0x3ddea537	0.10871356
164	0x3d97b428	0.07407409
165	0xbe3d9c26	-0.18516597
166	0xbdc18b01	-0.09450341
167	0xbe479428	-0.19490111
168	0xbed9fc5c	-0.42575347
169	0x3ca96ce4	0.020681806
170	0xbf14c933	-0.58119506
171	0x3eb9db82	0.36300284
172	0xbe6193a6	-0.2202898
173	0xbe13e405	-0.14442451
174	0x3eab3ac9	0.33443287
175	0xbe8d6a82	-0.27620322
176	0xbf0ffc83	-0.5624468
177	0x3ca28517	0.019838853
178	0x3e087e4c	0.13329428
179	0xbde6a570	-0.112620234
180	0x3e2c59e4	0.16831166
181	0xbe20e086	-0.15710649
182	0xbee254a8	-0.44205213
183	0xbe2ce2b6	-0.16883358
184	0xbdbe51fb	-0.0929298
185	0x3ea1f4bb	0.31632027
186	0xbeb6e523	-0.35721692
187	0xbe800f9d	-0.25011912
188	0x3e87730b	0.26454958
189	0xbe1bbad8	-0.15207994
190	0x3e5916cc	0.21200103
191	0x3e8060d2	0.25073868
192	0xbe4572c9	-0.19282068
193	0xbd8fc169	-0.07019312
194	0xbf0635dd	-0.5242594
195	0xbf9d4cc8	-1.2289057
196	0x3e8140cb	0.25244746
197	0xbe67fe5e	-0.22655627
198	0xbdde08f8	-0.108415544
199	0xbddc4e43	-0.10757115
200	0x3e7158ee	0.2356908
201	0x3e39ec44	0.18156534
202	0x3e4d714c	0.2006275
203	0xbe1e84a4	-0.15480286
204	0xbf1086d5	-0.5645574
205	0xbe0b569a	-0.13607255
206	0x3da9a10f	0.082826726
207	0xbf54db21	-0.83146864
208	0x3e76b48a	0.24092308
209	0x3f13defc	0.5776212
210	0xbe2eb4cd	-0.17061158
211	0x3e946b0c	0.2898792
212	0xbe809e95	-0.25120988
213	0xbe064dfc	-0.13115686
214	0xbe5a6e1c	-0.21331066
215	0xbea2c3fe	-0.31790155
216	0xbc21660c	-0.00985099
217	0xbf4ba583	-0.79549426
218	0x3dc49cfb	0.09600254
219	0xbf5ae078	-0.8549876
220	0xbd2428b0	-0.040077865
221	0xbeedad81	-0.46421435
222	0x3d4305b5	0.047612865
223	0x3eeed769	0.4664872
224	0x3f8632f0	1.0484295
225	0x3e2efc87	0.17088519
226	0xbf0b07be	-0.5430869
227	0x3ec4e096	0.38452595
228	0xbe24fef5	-0.16112883
229	0x3d350b59	0.044200275
230	0xbe1c3f71	-0.15258576
231	0x3e9101ae	0.28321594
232	0xbe326576	-0.17421517
233	0x3cd5f259	0.026116537
234	0x3e84ad47	0.2591345
235	0xbe22c1b7	-0.15894209
236	0x3e443cce	0.1916382
237	0x3ddf1d0b	0.108942114
238	0x3d93e482	0.07221319
239	0x3c6c26e4	0.014413569
240	0xbc8fa148	-0.01753296
241	0x3ea63e19	0.32469252
242	0x3ee31069	0.44348457
243	0xbf452aea	-0.77018607
244	0x3c2386fb	0.009980912
245	0x3e68aded	0.22722597
246	0xbe458797	-0.19290005
247	0xbeb6f94f	-0.35737082
248	0x3f53d861	0.82752043
249	0x3df188e0	0.11793685
250	0xbedc39eb	-0.43012938
251	0x3f11edff	0.5700378
252	0xbe40f83b	-0.18844692
253	0x3f65ab34	0.8971436
254	0x3d1f59a0	0.038903832
255	0xbe62f86c	-0.22165078

fc1.bias f4 [42]
0	0x3d0a972b	0.03383557
1	0xbd5db7ad	-0.054130245
2	0xbdaa2096	-0.083069965
3	0x3d5bda2e	0.05367487
4	0xbcce830c	-0.025208972
5	0xbca53232	-0.020165537
6	0xbe18667d	-0.14882846
7	0x3e106010	0.14099145
8	0x3e4f76aa	0.2026011
9	0xbd3f1824	-0.04665388
10	0xbe565a5d	-0.20932908
11	0xbc509318	-0.012730382
12	0x3dd06a87	0.101765685
13	0xbe4d0e08	-0.20024884
14	0x3991575c	0.00027721643
15	0xbcfbff11	-0.030761274
16	0xbd84ad14	-0.064783245
17	0xbe31c895	-0.17361672
18	0xbcaf01d7	-0.021363182
19	0x3d805943	0.06267025
20	0x3dbbcfec	0.09170517
21	0xbd5e6dde	-0.054303996
22	0xbd85f591	-0.06540979
23	0xbcca013c	-0.024658792
24	0x3eb059db	0.34443554
25	0xbde7df5d	-0.113219
26	0xbe7240f9	-0.23657598
27	0x3ebfe9a7	0.3748295
28	0xbcec4024	-0.028839178
29	0x3e31509f	0.17315911
30	0xbb309c55	-0.002694865
31	0xbe71ae6e	-0.23601696
32	0xbdb49fc8	-0.08819538
33	0x3cc261f4	0.023728348
34	0x3f0b92b5	0.5452073
35	0xbc6b57ff	-0.014364242
36	0x3e48ada7	0.19597493
37	0xbdfab964	-0.12242392
38	0xbc8f77fe	-0.017513271
39	0xbca0eff5	-0.01964567
40	0xbd00bf1e	-0.031432264
41	0x3d41dd5c	0.047330245

fc2.weight f4 [42, 42]
0	0x3e7ffcbf	0.24998759
1	0xbd47d022	-0.048782475
2	0x3df21208	0.118198454
3	0x3e041cb3	0.12901573
4	0xbdb24d09	-0.087060995
5	0x3d70960c	0.058736846
6	0x3d35d3ae	0.044391327
7	0xbea54d62	-0.322856
8	0x3e992d33	0.29917297
9	0x3d6f8d11	0.05848414
10	0x3eabb86e	0.33539146
11	0xbd5da3d6	-0.054111324
12	0x3c099fbc	0.0083999
13	0x3e619c61	0.2203231
14	0xbd27ed0d	-0.040997554
15	0x3d8ea878	0.069657266
16	0xbf042b1d	-0.51628286
17	0x3e930f19	0.28722456
18	0x3e1a7e77	0.15087305
19	0xbdfea44c	-0.12433681
20	0xbf5a856a	-0.85359824
21	0xbe0791ba	-0.13239184
22	0xbd120590	-0.035649836
23	0x3de77ecf	0.11303484
24	0xbe14831e	-0.14503142
25	0x3d966108	0.07342726
26	0x3d92eaac	0.07173666
27	0xbd7ad2cc	-0.061236188
28	0x3da220b3	0.07916393
29	0xbed88fcc	-0.42297208
30	0xbde321c4	-0.11090425
31	0xbd973dfb	-0.07384869
32	0x3d456268	0.04818955
33	0xbe36db64	-0.17857128
34	0xbdb8c121	-0.090212114
35	0x3e11c8a2	0.14236692
36	0x3e0233f9	0.12715138
37	0xbe95d927	-0.29267237
38	0xbd0cdea3	-0.03439201
39	0x3d9dd574	0.077067286
40	0x3ded8c6f	0.11599051
41	0x3e52c59b	0.20583193
42	0xbe82a539	-0.2551668
43	0x3d92b331	0.07163084
44	0xbe223b54	-0.15842944
45	0xbecb0fcb	-0.39660487
46	0x3d496eb9	0.04917786
47	0x3d5e236a	0.054232992
48	0xbe42b615	-0.19014771
49	0x3e106a16	0.14102969
50	0x3e61c685	0.22048385
51	0xbd803204	-0.0625954
52	0xbe62a3ab	-0.22132747
53	0x3c9cc9a9	0.019139128
54	0x3e2ece6a	0.17070928
55	0x3c8e6ec7	0.017386807
56	0xbd8de8f9	-0.06929202
57	0x3cab15c0	0.020884395
58	0xbc93d2b4	-0.018044807
59	0x3dc83217	0.09775179
60	0x3daab620	0.08335519
61	0xbd387ddc	-0.045041904
62	0xbda1a822	-0.07893397
63	0x3e254a07	0.1614152
64	0xbd4fc6b5	-0.05072661
65	0xbdabbd4e	-0.083857164
66	0x3dd4e0ce	0.103944406
67	0x3b2ed3a2	0.0026676436
68	0xbe960e5d	-0.29307833
69	0xbe3dac8a	-0.1852285
70	0xbdfacd81	-0.12246228
71	0xbeb69022	-0.3565684
72	0x3e0a068a	0.13479057
73	0x3e6a52b7	0.22883116
74	0x3d73b5fe	0.059499733
75	0x3ee4c539	0.4468172
76	0xbdc08156	-0.09399669
77	0xbe24e88e	-0.16104338
78	0x3d25226b	0.040316027
79	0xbf7822db	-0.96928185
80	0x3d3fe983	0.046853554
81	0x3d289199	0.041154478
82	0x3da179d5	0.07884566
83	0xbdee9a38	-0.11650509
84	0xbd39f52f	-0.04539984
85	0xbe03a8f6	-0.12857422
86	0x3dc46ca0	0.09591031
87	0xbdbccc3a	-0.092186406
88	0x3d04f986	0.032464527
89	0xbf1978ae	-0.5994977
90	0x3e3e4eb8	0.18584716
91	0xbf311de8	-0.6918626
92	0x3a87294d	0.0010311991
93	0xbdfefab5	-0.12450162
94	0xbf88f032	-1.0698302
95	0xbd8e40ff	-0.06945991
96	0x3dd0747e	0.10178469
97	0x3e34bbe5	0.17649801
98	0xba8fc6d6	-0.0010969292
99	0x3d7e7818	0.06212625
100	0xbf7713a4	-0.96514344
101	0xbf3916f2	-0.72300637
102	0xbf22401d	-0.6337908
103	0x3e833248	0.256243
104	0xbf29dfeb	-0.66357297
105	0xbd7c8e36	-0.06165906
106	0xbdcbc3eb	-0.09949478
107	0xbe23accb	-0.15983884
108	0xbe55fb5a	-0.20896664
109	0xbf025c64	-0.50922227
110	0xbdcddef7	-0.10052293
111	0xbe503e8e	-0.20336363
112	0xbcd7b261	-0.026330175
113	0xbd625fe8	-0.055267245
114	0x3e001efd	0.12511821
115	0xbeccdd10	-0.40012407
116	0x3e8adc39	0.27121142
117	0xbf1726fc	-0.5904386
118	0x3b7bddd9	0.0038431792
119	0x3cbd5ef3	0.023116564
120	0x3ab4f6bd	0.0013806444
121	0x3df6d46d	0.12052236
122	0xbe0ebf7a	-0.1394023
123	0xbd971cbc	-0.073785275
124	0x3dd2a56b	0.10285457
125	0x3e3582ac	0.17725629
126	0xbf074fda	-0.5285622
127	0x3e078ad8	0.13236558
128	0xbf2cb71d	-0.6746691
129	0x3ef12d4c	0.4710487
130	0xbe682f24	-0.22674233
131	0x3e7daf9d	0.24774022
132	0xbdfc29c7	-0.12312656
133	0x3e0c9b93	0.13731222
134	0xbd527137	-0.0513775
135	0x3dbdf0ec	0.09274468
136	0xbe2cd457	-0.16877876
137	0xbe05de13	-0.13072996
138	0xbee0a737	-0.43877575
139	0xbd9a8926	-0.0754569
140	0xbc5f56b6	-0.013631513
141	0x3de63c3f	0.1124196
142	0x3ddb3e16	0.10705201
143	0xbe4d3aef	-0.20042013
144	0x3d75a50a	0.059971847
145	0x3e11356d	0.14180537
146	0xbe6b008a	-0.22949424
147	0x3db2bfcf	0.08727991
148	0x3d1ee468	0.038792044
149	0x3e2ed295	0.17072518
150	0xbe911c0b	-0.28341708
151	0xbd675b64	-0.05648364
152	0xbea37eee	-0.31932777
153	0x3dbe46ae	0.09290825
154	0xbdf65d50	-0.12029517
155	0x3c8e6283	0.017380958
156	0xbc634769	-0.013872006
157	0x3debccee	0.115136966
158	0xbcd9dce4	-0.026594587
159	0x3d8a12a8	0.0674184
160	0xbf2d2534	-0.6763489
161	0xbdc031f0	-0.09384525
162	0x3e5198e9	0.20468487
163	0x3e51d9fe	0.20493314
164	0x3d5ed43e	0.05440163
165	0x3d17028c	0.036867663
166	0x3a7309a0	0.00092711486
167	0xbe7591e2	-0.23981431
168	0x3eb59205	0.35462967
169	0x3d288916	0.04114636
170	0xbf576097	-0.8413176
171	0xbee9d799	-0.456723
172	0x3ea58535	0.3232819
173	0x3df9d6ee	0.12199198
174	0xbe349f0d	-0.17638798
175	0xbdc97c66	-0.0983818
176	0x3e174f82	0.14776424
177	0xbc0e72f7	-0.008694402
178	0xbad70a3b	-0.0016406247
179	0x3dc00933	0.093767546
180	0x3e391047	0.18072616
181	0x3f174fb4	0.5910599
182	0x3dc4b6b0	0.096051574
183	0x3dd252ff	0.102697365
184	0xbf0de39b	-0.55425423
185	0xbd2ee540	-0.0426991
186	0xbdc16622	-0.094433084
187	0x3d58776c	0.052848265
188	0xbf3a6760	-0.7281399
189	0xbc552607	-0.013009555
190	0xbe5d7792	-0.21627644
191	0x3d863e47	0.06554847
192	0xbf4ad647	-0.7923321
193	0x3dacdb98	0.08440322
194	0xbf027aaa	-0.5096842
195	0x3ad4d3da	0.0016237453
196	0xbdc35491	-0.09537614
197	0x3e295485	0.16536148
198	0xbd2d417f	-0.04229879
199	0x3e899069	0.2686799
200	0xbeefb560	-0.46818066
201	0xbe4ca0c9	-0.1998321
202	0xbdc6562c	-0.09684405
203	0x3d8e145d	0.06937478
204	0xbdfefcde	-0.12450574
205	0x3e9d20d4	0.30689108
206	0xbd7a8488	-0.061161548
207	0xbde55eef	-0.11199748
208	0xbd7a91fa	-0.06117437
209	0x3dceafae	0.10092102
210	0x3cf450d0	0.02982369
211	0xbc9fa7ef	-0.019489257
212	0xbdbec94f	-0.0931574
213	0x3df4959d	0.11942599
214	0xbf26cb41	-0.6515389
215	0xbe3a1611	-0.1817248
216	0xbde2d187	-0.110751204
217	0x3ead6ecf	0.33873603
218	0xbe795f9e	-0.24352881
219	0x3dc97644	0.098370105
220	0xbe33e8fd	-0.17569347
221	0x3d9eb50b	0.07749375
222	0x3ed1b2d1	0.4095674
223	0xbd3f4093	-0.046692442
224	0xbda3c5dd	-0.07996724
225	0x3d8eacb2	0.06966533
226	0xbe793bd7	-0.24339233
227	0xbcc2ab53	-0.023763334
228	0x3df6b95c	0.12047073
229	0xbf3cce9f	-0.7375278
230	0xbd79d85e	-0.06099736
231	0x3e0c18ea	0.13681379
232	0xbe12c3dd	-0.14332528
233	0x3defc1f1	0.11706913
234	0xbe9780e0	-0.2959051
235	0xbe6d9eb0	-0.23205066
236	0xbca485aa	-0.020083267
237	0xbc48a474	-0.01224624
238	0x3e142f00	0.14471054
239	0xbd6e5844	-0.058189645
240	0x3d504b97	0.050853338
241	0x3e2dc816	0.16970858
242	0x3d6a7a7f	0.057245728
243	0x3d612fa2	0.054977067
244	0xbcf6a68f	-0.030108718
245	0xbd2b608d	-0.041840125
246	0xbefc1e71	-0.49241975
247	0xbcd76cbd	-0.026296968
248	0xbdee3a34	-0.11632195
249	0x3e330d1b	0.17485468
250	0xbe0b8582	-0.13625148
251	0x3e58613f	0.21130846
252	0x3e913fbf	0.28368947
253	0x3a8b2602	0.0010616186
254	0x3eac4698	0.3364761
255	0x3d17fae2	0.037104495

fc2.bias f4 [42]
0	0xbeeda584	-0.4641534
1	0xbe98ba9f	-0.2982988
2	0xbf158fda	-0.58422625
3	0xbdeeae4e	-0.1165434
4	0xbdc8e1fc	-0.09808728
5	0xbf29cf64	-0.6633208
6	0x3e0d23d2	0.13783196
7	0x3ebcd646	0.36882228
8	0xbf1c763d	-0.6111792
9	0xbf0007f6	-0.5001215
10	0xbf02f860	-0.5116024
11	0xbe3b9cfe	-0.18321607
12	0xbca0f35e	-0.019647297
13	0xbe8568eb	-0.2605661
14	0xb9bd3e7d	-0.00036095447
15	0xbf8fdf3d	-1.1240002
16	0xbeeeb3d8	-0.46621585
17	0xbe2a2d24	-0.16618782
18	0xbee21ba5	-0.44161716
19	0x3eaa196c	0.3322252
20	0xbe9beebc	-0.30455577
21	0x3cc80319	0.02441554
22	0xbec12504	-0.37723553
23	0x3f0163a1	0.50542647
24	0x3ede91c3	0.43470582
25	0x3d69d83b	0.05709098
26	0x3ebcbeb2	0.3686424
27	0xbe906097	-0.28198692
28	0x3d9c19b0	0.07622087
29	0xbe3111cb	-0.17291944
30	0xbeaebd64	-0.3412887
31	0x3d208a2f	0.039194282
32	0xbee8f806	-0.45501727
33	0xbec3c17d	-0.38233557
34	0xbec570a6	-0.38562506
35	0x3ee62b99	0.44955137
36	0xbe6abef4	-0.22924405
37	0xbe422c4e	-0.18962213
38	0x3e8c46c6	0.27397746
39	0xbebb406e	-0.36572593
40	0xbf204712	-0.62608445
41	0xbe99b03f	-0.30017278

out.weight f4 [7, 42]
0	0x3d8e4f68	0.06948739
1	0x3e0d5280	0.13801003
2	0x3e3104ad	0.1728694
3	0x3e26fa89	0.16306509
4	0x3e28e0f7	0.16492067
5	0x3c931012	0.017951999
6	0xbdf7e68d	-0.12104521
7	0xbde9f6b7	-0.1142401
8	0x3e4ce309	0.20008482
9	0xbe525152	-0.20538834
10	0xbe82d81d	-0.25555506
11	0xbc5da3cf	-0.013527825
12	0x3e22ed49	0.1591083
13	0x3e3218a0	0.17392206
14	0xbde4d77e	-0.111739144
15	0x3dd63118	0.10458583
16	0x3e9c4e3f	0.30528447
17	0x3e09f00d	0.13470478
18	0x3da66ec7	0.08126598
19	0xbdd29b57	-0.10283535
20	0xbb24479c	-0.0025067097
21	0x3d915e9e	0.07098125
22	0x3e273e2c	0.1633231
23	0xbda62e51	-0.08114303
24	0x3da865c5	0.08222536
25	0xbd7b858f	-0.06140667
26	0xbe5bac49	-0.2145244
27	0xbdca287d	-0.09871004
28	0x3cf9ae03	0.030478483
29	0x3cf4ec7e	0.029897925
30	0x3d24569e	0.040121667
31	0xbbd72431	-0.0065655936
32	0x3d3e246d	0.046421457
33	0xbd86c2ea	-0.06580146
34	0x3d35d5c1	0.044393305
35	0xbca2c4cb	-0.019869229
36	0x3a2a22db	0.0006490179
37	0x3df5f9e5	0.12010554
38	0x3dd92d57	0.10604351
39	0xbe02581c	-0.12728924
40	0x3dcb6d10	0.099329114
41	0xb99dd682	-0.00030105194
42	0x3e36b8aa	0.17843881
43	0xbd15ba04	-0.03655435
44	0x3e07a3c3	0.13246064
45	0xbe2cc86f	-0.16873334
46	0xbd079d08	-0.03310874
47	0x3e469bf1	0.19395424
48	0xbdaa9992	-0.083300725
49	0xbd8625d1	-0.06550182
50	0x3e26bd3b	0.16283123
51	0x3e0cf05c	0.13763565
52	0x3e214086	0.1574727
53	0xbca133e2	-0.01967806
54	0x3de45998	0.11149901
55	0x3a802003	0.0009775165
56	0xbe53a4ee	-0.20668384
57	0x3e0ffc48	0.14061081
58	0x3c9783bd	0.018495435
59	0xbe093f90	-0.13403153
60	0xbd917320	-0.071020365
61	0xbe226f2b	-0.1586272
62	0x3e5b6f3b	0.2142915
63	0xbb98e829	-0.0046663475
64	0x3e541c11	0.20713831
65	0xbe1b188c	-0.15146083
66	0x3d794aec	0.060862467
67	0x3b6d1545	0.0036176008
68	0xbdc6d6a8	-0.09708911
69	0xbe2914e0	-0.1651187
70	0x3d8eb1fb	0.06967541
71	0x3e0245f1	0.12721993
72	0x3e65717e	0.22406575
73	0x3da198e7	0.07890492
74	0x3e44de17	0.19225346
75	0x3e3da8ba	0.18521395
76	0x3dbaf029	0.09127838
77	0xbca9d384	-0.020730741
78	0xbe2a8f98	-0.16656339
79	0x3e16173d	0.14657302
80	0x3dbdb10a	0.09262283
81	0x3e0f9732	0.1402252
82	0xbe741f86	-0.2384015
83	0x3e2c4d2e	0.16826317
84	0x3e030cd8	0.12797868
85	0xbd586683	-0.052832138
86	0x3dead741	0.11466838
87	0xbe09564b	-0.13411824
88	0x3dcf9526	0.1013587
89	0x3e08827f	0.1333103
90	0xbcb35c52	-0.021894608
91	0xbe27640d	-0.1634676
92	0x3ce69403	0.02814675
93	0x3e384e3c	0.17998594
94	0x3dc21dbb	0.09478327
95	0xbcde6d1c	-0.027151637
96	0xbe75b0f2	-0.2399328
97	0x3dae31d7	0.085056
98	0xbe7425f1	-0.23842598
99	0xbcaa8f79	-0.020820366
100	0xbd4ae8ec	-0.049538538
101	0x3d862dba	0.065516904
102	0xbe8432b7	-0.25819942
103	0xbe5f1377	-0.21784769
104	0x3da29596	0.079386875
105	0xbcb3576b	-0.02189227
106	0x3e3e3a47	0.18576919
107	0xbc1b81ef	-0.009491428
108	0x3da0eaa7	0.078572564
109	0xbccfc819	-0.025363969
110	0xbc6a8f97	-0.014316461
111	0xbe0e26fe	-0.13882062
112	0x3e60aa20	0.21939898
113	0xbe24d49d	-0.1609673
114	0xbdaf692e	-0.08564983
115	0x3d986fe0	0.074432135
116	0xbd834806	-0.06410222
117	0x3e0fcef6	0.14043793
118	0x3ddc674e	0.10761891
119	0xbd8d1a1a	-0.06889744
120	0x3dbbdedc	0.091733664
121	0x3deb50ee	0.114900455
122	0xbe2408b1	-0.1601894
123	0x3d90a7ef	0.07063281
124	0x3d3c40a6	0.04596009
125	0xbc9ecb18	-0.019383952
126	0x3e294db7	0.16533552
127	0x3a306a08	0.0006729667
128	0x3d8581ae	0.06518875
129	0x3b679295	0.0035335172
130	0x3d93c7e9	0.07215864
131	0x3d27470d	0.040839244
132	0x3d1cfddb	0.038328033
133	0xbd44808b	-0.04797415
134	0xbe9c4a30	-0.3052535
135	0x3e5ffd10	0.2187388
136	0xbd98e2b8	-0.07465118
137	0x3b5ebddf	0.0033987684
138	0xbe198684	-0.1499272
139	0x3d83584e	0.06413327
140	0xbe0a6485	-0.13514908
141	0x3e320db6	0.17388043
142	0xbe81dc17	-0.25363228
143	0xbc7ae3fa	-0.015313143
144	0xbcce9544	-0.02521766
145	0xba010da3	-0.00049229915
146	0xbc586daf	-0.013209744
147	0x3d3c4e37	0.04597303
148	0xbd8b615c	-0.06805679
149	0xbd8013ca	-0.062537745
150	0xbdaf80c5	-0.08569483
151	0xbe599669	-0.21248783
152	0x3c277426	0.010220563
153	0xbe57170d	-0.21004887
154	0x3d1468b5	0.03623267
155	0x3d85c0cc	0.06530914
156	0x3e25145a	0.16121045
157	0x3d292d14	0.041302755
158	0xbc81a06c	-0.015823565
159	0x3c7522fb	0.014961953
160	0x3dfd6d03	0.12374308
161	0xbeadab57	-0.33919784
162	0xbdc7ca77	-0.09755414
163	0x3d941080	0.072297096
164	0x3d9f2622	0.07770945
165	0x3dc602d7	0.096685104
166	0xbd544688	-0.051825076
167	0xbbb61937	-0.005557205
168	0x3e167372	0.14692476
169	0xbd7222ba	-0.05911515
170	0x3e4ffd81	0.20311548
171	0xbdf24531	-0.118296035
172	0xbe3a472b	-0.18191211
173	0x3e4f2bcb	0.2023155
174	0xbd5e8cce	-0.0543335
175	0xbd3ad352	-0.045611687
176	0xbd71d7d2	-0.059043713
177	0x3e4e4074	0.20141774
178	0x3c4fcd1b	0.012683178
179	0x3d8c6d8c	0.06856832
180	0x3d838021	0.06420923
181	0x3e7319fc	0.23740381
182	0xbcc6a82a	-0.024250109
183	0xbd81c255	-0.06335894
184	0x3e25a372	0.1617563
185	0x3e8096d5	0.25115076
186	0xbe537494	-0.2064994
187	0xbdfeb392	-0.12436594
188	0xbe060396	-0.13087305
189	0x3e0af1a0	0.13568735
190	0x3dda3fad	0.106566764
191	0xbdfd9ffb	-0.123840295
192	0x3e0f02c0	0.13965893
193	0xbd9913f5	-0.074745096
194	0xbe02a7b9	-0.12759294
195	0xbce7e8ae	-0.028309193
196	0xbd298167	-0.041383173
197	0xbcb89e79	-0.022536503
198	0x3ce479e7	0.027890159
199	0xbdbb2115	-0.09137169
200	0x3e60acc4	0.21940905
201	0x3da9538f	0.08267891
202	0x3e5d76f5	0.2162741
203	0xbdcb5381	-0.099280365
204	0xbd0f5ea7	-0.035002377
205	0xbd53a614	-0.051672056
206	0x3de4ed93	0.11178126
207	0xbd5a9c61	-0.05337179
208	0x3db649de	0.08900808
209	0xbe49c8b7	-0.19705473
210	0x3e2d0bfe	0.16899106
211	0x3d9d7749	0.076887675
212	0xbde15aaf	-0.11003625
213	0x3d90ef73	0.07076921
214	0x3e0393e5	0.12849386
215	0x3e457d42	0.19286063
216	0x3d4f743e	0.050647967
217	0xbc2b3d42	-0.010451617
218	0xbe4d461d	-0.20046277
219	0x3df7e210	0.12103665
220	0xbd4fa3a5	-0.050693173
221	0xbd3217fb	-0.0434799
222	0x3b3316dd	0.002732686
223	0x3de32668	0.1109131
224	0x3ca13d0c	0.01968243
225	0x3d4fff9e	0.050780885
226	0x3e200356	0.15626273
227	0x3e1e0713	0.15432386
228	0xbe8f6c52	-0.2801233
229	0xbdef3542	-0.1168008
230	0xbd0c66cc	-0.034277722
231	0xbd62b653	-0.05534966
232	0x3d80bce4	0.06286028
233	0xbced6b9c	-0.028981976
234	0x3e2396fb	0.15975563
235	0xbe01ad37	-0.12663732
236	0xbe4a8fcb	-0.19781415
237	0xbda7fca1	-0.08202482
238	0x3cd9255a	0.026507068
239	0x3e4f51a4	0.20245987
240	0x3d38a63d	0.045080412
241	0x3e3f568b	0.18685357
242	0x3e5106ca	0.20412746
243	0x3e1abaf6	0.15110382
244	0x3e2c42dd	0.16822381
245	0xbdfabd64	-0.12243155
246	0x3c44370d	0.011976016
247	0x3de3690a	0.11104019
248	0x3da65190	0.081210256
249	0xbdfb48b0	-0.122697234
250	0xbd9bf22e	-0.076145515
251	0x3e6754f9	0.22591008
252	0x3e280103	0.16406636
253	0xbd7f184a	-0.062279023
254	0x3cebd9da	0.028790403
255	0x3b836f3c	0.004011063

out.bias f4 [7]
0	0xbe4dfaa5	-0.20115145
1	0xbe56b290	-0.20966554
2	0xbd4fd258	-0.05073771
3	0x3dc6ef51	0.09713615
4	0xbdec96b0	-0.11552179
5	0xbe3e69fd	-0.18595119
6	0xbe8b2a39	-0.2718065
