C4(standard).pth (torch, 343934 bytes, 10 tensors)

conv1.weight f4 [32, 1, 5, 5]
0	0xbedb83e3	-0.4287406
1	0xbd831960	-0.06401324
2	0xbeb42fa0	-0.35192585
3	0xbdc1fa0a	-0.09471519
4	0x3f09d02c	0.5383327
5	0xbf7f32cd	-0.9968689
6	0xbf0f918e	-0.56081474
7	0x3e71f2e2	0.23627809
8	0x3ecccf12	0.40001732
9	0x3f06fe7f	0.5273208
10	0x3e206979	0.15665235
11	0xbc14a917	-0.009073517
12	0x3eb0a2fe	0.34499353
13	0xbeea8cbb	-0.45810494
14	0xbf1c820f	-0.61135954
15	0x3eb373d7	0.35049316
16	0xbe25d363	-0.16193919
17	0xbe3748b4	-0.17898828
18	0xbe7ba275	-0.24573691
19	0x3cd9c7ad	0.02658447
20	0xbda31dd6	-0.07964675
21	0x3d30e805	0.04319002
22	0xbbd6bd1a	-0.0065533044
23	0x3dc1a5f6	0.09455483
24	0x3ecf5689	0.4049571
25	0x3e6b0e58	0.2295469
26	0x3e93ac24	0.2884227
27	0x3e93744a	0.2879966
28	0x3e6c060b	0.2304918
29	0xbef137b3	-0.47112808
30	0x3e7ddc8c	0.24791163
31	0x3cef9728	0.029246882
32	0xbebc5623	-0.36784467
33	0x3d859777	0.0652303
34	0x3e7b8c9c	0.24565357
35	0xbe8a2a82	-0.26985556
36	0xbe8acdad	-0.27110043
37	0xbee222ff	-0.44167325
38	0x3f247721	0.64244276
39	0xbd579f89	-0.05264238
40	0xbda8bae9	-0.08238775
41	0x3dcaffeb	0.09912094
42	0x3ea36fe3	0.319213
43	0xbebcb14d	-0.3685402
44	0xbd67f0d6	-0.056626163
45	0xbec3998c	-0.38203084
46	0x3e0eca03	0.13944249
47	0xbb1f7d64	-0.0024336213
48	0xbde01eb2	-0.10943355
49	0x3f07f3b4	0.53106236
50	0x3f1668ca	0.58753645
51	0xbe801b1c	-0.25020683
52	0x3f0a609a	0.5405365
53	0xbdcc5468	-0.09977037
54	0x3d2a68e5	0.04160394
55	0xbec19e36	-0.37816018
56	0xbe687fd1	-0.22705008
57	0x3e6f2a43	0.23355965
58	0xbeeb827d	-0.45997992
59	0xbe235b6c	-0.15952843
60	0xbe9a6d90	-0.30161715
61	0x3deff55d	0.11716721
62	0x3ca0f1d9	0.019646572
63	0x3dcb25b2	0.09919299
64	0x3e323ca2	0.17405942
65	0xbea3e098	-0.3200729
66	0xbd1147f1	-0.035469
67	0x3f1d3120	0.61403084
68	0xbf03758a	-0.51351225
69	0xbe3787e2	-0.17922929
70	0xbf09ddbe	-0.53853977
71	0xbe89d708	-0.26921868
72	0x3df2ec9a	0.118615344
73	0xbe62a6b7	-0.22133909
74	0xbf394c99	-0.72382504
75	0x3f020804	0.5079348
76	0xbe03dcad	-0.1287715
77	0x3d013b5e	0.031550758
78	0x3e9a3324	0.30117142
79	0x3ecbd420	0.39810276
80	0x3f264523	0.64949244
81	0xbd6149cf	-0.05500203
82	0x3f012a5e	0.5045527
83	0x3e0c4c60	0.1370101
84	0xbddbab11	-0.10725988
85	0xbec24d73	-0.37949714
86	0xbf8b28a4	-1.0871778
87	0xbef284d7	-0.47366974
88	0xbe20d8b3	-0.15707664
89	0xbee62e42	-0.44957167
90	0xbdfa0896	-0.12208669
91	0xbeac85a7	-0.3369572
92	0xbcc8516f	-0.024452893
93	0xbe3e24c9	-0.1856872
94	0x3d92c907	0.07167249
95	0xbea0ce4c	-0.31407392
96	0xbe770d65	-0.24126203
97	0x3e4b7152	0.19867447
98	0x3d8cbc3b	0.068718396
99	0xbf0b73a9	-0.5447336
100	0x3e9156a1	0.28386405
101	0x3cdb865f	0.026797472
102	0x3d27252c	0.040806934
103	0x3cfb4cd9	0.030676292
104	0x3ea3341e	0.318757
105	0xbe1039ab	-0.14084499
106	0xbf0b956e	-0.54524887
107	0x3ec66c03	0.3875428
108	0x3eb50a1b	0.35359272
109	0x3dcab6ce	0.098981485
110	0x3cbe37c4	0.02321995
111	0xbe463aa9	-0.19358315
112	0x3e2b4955	0.16727193
113	0x3df3ab5e	0.1189792
114	0xbefda0a9	-0.49536636
115	0x3e3133f3	0.17304973
116	0x3e94a673	0.2903324
117	0xbe9baa81	-0.30403522
118	0x3e87fbcc	0.26559293
119	0xbeb41440	-0.351717
120	0x3ce75c70	0.02824232
121	0xbe9cd5e4	-0.30631936
122	0x3eb790ec	0.35852754
123	0xbea63383	-0.32461175
124	0x3e78676a	0.242582
125	0xbc3992c4	-0.011326496
126	0x3f470e98	0.77756643
127	0xbe9744ad	-0.29544583
128	0x3f36eb7f	0.7145309
129	0x3d5191f7	0.051164594
130	0xbec4dd7f	-0.38450238
131	0xbf1be520	-0.6089649
132	0xbcf6979a	-0.030101586
133	0xbee2d592	-0.44303566
134	0x3efa5429	0.48892334
135	0xbf93735d	-1.1519581
136	0x3e0bf483	0.13667493
137	0x3cb3e888	0.021961465
138	0xbe61b76e	-0.22042629
139	0x3d2193a2	0.039447434
140	0xbf345fa7	-0.70458454
141	0xbcf41c0f	-0.029798536
142	0x3e4373a6	0.19087085
143	0x3d96da9b	0.073659144
144	0xbe6e0ad3	-0.23246317
145	0xbe1520e4	-0.14563328
146	0x3ea26010	0.31713915
147	0x3e16e2ca	0.1473495
148	0x3b93412e	0.004493854
149	0xbec41d79	-0.38303736
150	0xbf5cdeb0	-0.86277294
151	0x3e850340	0.25979042
152	0x3e973183	0.29529962
153	0x3ea00ae6	0.31258315
154	0x3c4500a6	0.01202408
155	0xbf1c9d20	-0.61177254
156	0xbd233cb0	-0.039852798
157	0xbf7e9b8d	-0.994561
158	0x3de4e4cb	0.11176451
159	0xbe684888	-0.22683918
160	0xbf9299a6	-1.145314
161	0x3e4cd6e7	0.20003854
162	0x3e1f25e6	0.15541801
163	0x3ea3ce97	0.31993553
164	0x3e5fd862	0.21859887
165	0xbe2e10e3	-0.1699863
166	0xbe25cb34	-0.16190797
167	0xbe77d92b	-0.24203937
168	0xbe9198cb	-0.28436884
169	0x3da70094	0.08154407
170	0x3de7959a	0.11307831
171	0x3e9b28fc	0.30304706
172	0x3ef99ebb	0.48753914
173	0x3e027514	0.12739974
174	0xbef3ca55	-0.47615305
175	0xbeb36517	-0.35038063
176	0xbea3f28f	-0.32020995
177	0xbe8dfe78	-0.27733207
178	0x3e91ca32	0.28474575
179	0x3e8e0316	0.2773673
180	0xbe07780e	-0.13229391
181	0x3ce5abb4	0.028035976
182	0x3e722ef0	0.23650718
183	0xbe3ddeb6	-0.18541989
184	0x3d933b1f	0.07189011
185	0xbcc8ac09	-0.024496095
186	0xbf06e95b	-0.5269982
187	0xbeee2cfa	-0.4651869
188	0x3ea6ea70	0.32600737
189	0x3e9b92e5	0.3038551
190	0x3ea7287a	0.3264807
191	0xbe75c02e	-0.23999092
192	0x3ccbe030	0.024887174
193	0x3df486d5	0.1193978
194	0xbe8c0441	-0.27346995
195	0xbd8a9075	-0.06765834
196	0x3e50b82c	0.20382756
197	0x3ee5fccd	0.44919434
198	0xbe8835ae	-0.26603454
199	0x3e127b22	0.14304784
200	0x3e56d634	0.2098015
201	0xbe9999bf	-0.3000011
202	0xbe584940	-0.21121693
203	0x3e395a6d	0.18100901
204	0xbe9be30e	-0.30446666
205	0x3e5f0a5e	0.21781299
206	0xbd6837ca	-0.05669383
207	0x3ef2b61a	0.47404557
208	0x3ca7049c	0.02038794
209	0xbec12c7c	-0.3772925
210	0x3d2c448c	0.04205756
211	0xbe964311	-0.29348043
212	0xbd8bce9e	-0.068265185
213	0x3e9e8a50	0.309649
214	0x3da161cc	0.078799814
215	0x3e738139	0.23779763
216	0xbe54d60f	-0.20784782
217	0xbda9e605	-0.08295826
218	0xbeb69a72	-0.35664707
219	0x3ec4d50b	0.3844379
220	0xbdac6f02	-0.084196106
221	0x3e8d9212	0.27650505
222	0xbf088ec2	-0.5334283
223	0x3ef68c73	0.4815403
224	0xbe11ac13	-0.14225797
225	0xbe1d1009	-0.15338148
226	0x3e5608d6	0.20901808
227	0xbef47e9b	-0.47752842
228	0x3e59ba24	0.21262413
229	0x3eaae09c	0.33374488
230	0x3e96e8f3	0.294746
231	0xbd606d0a	-0.054791488
232	0x3f3cbf30	0.7372923
233	0x3d9bd8c2	0.07609703
234	0x3d5807ea	0.052741922
235	0x3e64481a	0.2229313
236	0xbefd6221	-0.4948893
237	0xbeb5cd6e	-0.35508293
238	0xbe98cfee	-0.29846138
239	0xbd127639	-0.035757277
240	0xbe6d82d0	-0.23194432
241	0xbe972fd7	-0.29528686
242	0xbe913382	-0.2835961
243	0xbe23f85e	-0.16012713
244	0x3eb23a69	0.34810188
245	0x3ecb0773	0.3965412
246	0x3ebea264	0.3723327
247	0xbe078f3c	-0.13238233
248	0xbe551a1b	-0.2081074
249	0xbf45818b	-0.7715079
250	0x3eb4d5af	0.35319278
251	0xbf4b2106	-0.79347265
252	0x3d7eed62	0.062238105
253	0xbf70a9e3	-0.94009227
254	0xbe806933	-0.2508026
255	0x3e51e3f9	0.20497121

conv1.bias f4 [32]
0	0xbf062122	-0.52394307
1	0xbf061c14	-0.52386594
2	0xbed804f9	-0.42191294
3	0x3e66e809	0.22549452
4	0xbf130f1c	-0.5744493
5	0xbeb66e56	-0.35631055
6	0xbf069dd4	-0.52584577
7	0xbf243db8	-0.64156675
8	0xbf0011c9	-0.5002714
9	0xbdfbf41b	-0.12302419
10	0xbe5df992	-0.21677235
11	0x3d95e61d	0.07319281
12	0xbf0f7918	-0.5604415
13	0x3d9e1da0	0.07720494
14	0x3d9f11ca	0.07767065
15	0xbef637fb	-0.48089585
16	0x3e0db548	0.13838685
17	0xbee9888f	-0.45611998
18	0xbf3866fb	-0.72032136
19	0xbeba2779	-0.3635824
20	0xbee29f34	-0.44262087
21	0x3d7d49f1	0.061838094
22	0x3ce84dc9	0.028357403
23	0xbeb88d6f	-0.36045405
24	0xbf3808e2	-0.71888554
25	0xbeacd352	-0.33754975
26	0xbf09f8b8	-0.5389514
27	0xbc50d235	-0.01274543
28	0xbefb8bdc	-0.49130142
29	0x3de062b5	0.10956327
30	0xbf3d8804	-0.7403567
31	0xbeedaf5a	-0.46422845

conv2.weight f4 [32, 32, 5, 5]
0	0xbe298188	-0.16553319
1	0x3ccc8970	0.024967879
2	0x3e7bcd55	0.24590047
3	0x3d3833f7	0.044971433
4	0x3e340c46	0.17582807
5	0x3d9a95de	0.07548116
6	0xbeb7aeac	-0.35875452
7	0xbcd285b7	-0.025698526
8	0xbf78ba7d	-0.9715956
9	0x3e294da5	0.16533525
10	0xbe247ca6	-0.16063175
11	0xbe86c10a	-0.26319152
12	0xbea5c5df	-0.32377526
13	0xbdf25dc5	-0.11834291
14	0xbd3f227a	-0.04666374
15	0xbe7bafca	-0.24578777
16	0x3ec65b10	0.3874135
17	0xbe9ffd0e	-0.31247753
18	0x3ec9a180	0.39381027
19	0x3ec604a2	0.3867541
20	0xbe20e493	-0.15712194
21	0x3dc9c257	0.098515205
22	0x3ebd1515	0.36930147
23	0xbe69714d	-0.22797127
24	0xbd82275b	-0.06355163
25	0xbeb434f0	-0.35196638
26	0xbe45fe36	-0.19335255
27	0x3e15e85b	0.14639418
28	0xbdccf234	-0.10007134
29	0xb85cc86c	-5.2638745e-05
30	0xbf1bba0a	-0.6083075
31	0xbd79fc5f	-0.061031695
32	0x3d7a840c	0.061161086
33	0xbbc62970	-0.00604742
34	0x3e10e29a	0.14148942
35	0x3d948f1a	0.07253857
36	0x3e622fab	0.22088496
37	0xbf02f355	-0.51152545
38	0xbf13b4a3	-0.57697505
39	0x3c0170f1	0.0079004625
40	0xbf3fc33b	-0.74907273
41	0xbe7dd59e	-0.2478852
42	0x3d6f5b7a	0.05843685
43	0xbebc7151	-0.36805204
44	0x3ea47c58	0.32126117
45	0x3e14ff6b	0.14550559
46	0x3d0b712a	0.03404347
47	0x3e46ffcd	0.19433518
48	0xbe1d3214	-0.15351135
49	0x3e4b2c5a	0.19841138
50	0x3ea3d433	0.31997833
51	0x3e727436	0.23677143
52	0xbd0cbffb	-0.034362774
53	0xbeb216cc	-0.34783018
54	0x3d9dba3f	0.07701539
55	0xbf4a6508	-0.7906041
56	0x3ec571c4	0.3856336
57	0xbee8901a	-0.4542244
58	0xbe6be08b	-0.23034875
59	0x3dd28ac3	0.10280373
60	0xbea2e9a4	-0.3181888
61	0xbc328599	-0.01089611
62	0xbdff42b8	-0.124638975
63	0x3d064fb6	0.032790862
64	0x3ee29374	0.44253123
65	0xbe11ca58	-0.14237344
66	0xbef330f0	-0.47498274
67	0x3e70af32	0.23504332
68	0x3e82e78e	0.25567287
69	0x3eb1d8e3	0.34735784
70	0xbef1021e	-0.47071928
71	0x3e7c90f2	0.24664667
72	0x3eb0ed84	0.3455621
73	0xbf64377b	-0.89147156
74	0xbf3b29da	-0.73110735
75	0x3e593efb	0.21215431
76	0xbe206d5b	-0.15666716
77	0xbe8e1761	-0.27752212
78	0xbd375929	-0.044762764
79	0x3e45c45b	0.19313185
80	0x3cedf73d	0.029048556
81	0xbdc60bc0	-0.0967021
82	0xbd08e077	-0.03341719
83	0xbe5190ad	-0.20465346
84	0x3ec43d90	0.38328218
85	0x3ef34b58	0.4751842
86	0x3de8820e	0.11352931
87	0x3da0e7cf	0.07856714
88	0xbeca3859	-0.39496115
89	0x3e4267a3	0.18984847
90	0xbb8b79ba	-0.0042564543
91	0x3e8d1a12	0.27558953
92	0xbe5b310d	-0.2140543
93	0xbf3002cb	-0.6875426
94	0xbdf9e9c9	-0.12202794
95	0x3d386bd7	0.04502472
96	0xbefa478e	-0.48882717
97	0x3de0e466	0.109810635
98	0xbf7b48f9	-0.9815822
99	0x3e441a9d	0.19150777
100	0x3dc60c8d	0.096703626
101	0x3e57661b	0.21035044
102	0xbe757319	-0.23969688
103	0x3ceb3378	0.028711066
104	0xbe6fecf4	-0.23430234
105	0x3ea3ae51	0.3196893
106	0x3e21bc0b	0.15794389
107	0xbe381d75	-0.17979987
108	0xbda82a9d	-0.08211253
109	0xbf17fc95	-0.59369785
110	0x3ea7bec2	0.32762724
111	0xbe3d24cb	-0.18471067
112	0xbd2af70c	-0.04173951
113	0xbe518a09	-0.20462812
114	0xbde887de	-0.113540396
115	0xbe12b1c1	-0.1432562
116	0xbe029365	-0.12751539
117	0x3e9b2f6c	0.30309618
118	0xbe56b603	-0.2096787
119	0x3e0cbd33	0.13744049
120	0xbdb72af8	-0.089437425
121	0xbd9c93d4	-0.076453835
122	0x3cce7c5b	0.025205782
123	0xbf03cb36	-0.5148195
124	0xbd768a2c	-0.060190365
125	0xbea2ea88	-0.31819558
126	0x3eec2ad0	0.46126413
127	0xbed6c0e3	-0.41944036
128	0x3ef7d9b6	0.48408288
129	0xbe92539e	-0.2857942
130	0x3f19ab89	0.60027367
131	0xbd6a92dd	-0.057268966
132	0x3d4f7390	0.05064732
133	0x3eed7ddf	0.46385095
134	0xbe054dee	-0.13018009
135	0xbed3008e	-0.4121136
136	0xbed60db4	-0.4180733
137	0x3edd23ce	0.4319138
138	0xbb38de3b	-0.0028208632
139	0xbea73824	-0.3266002
140	0xbf1e2490	-0.6177454
141	0xbd9374a1	-0.071999796
142	0x3e49ee20	0.19719744
143	0x3ee61130	0.44934988
144	0xbf5df7a3	-0.8670599
145	0x3e0e96ab	0.13924663
146	0x3d844dfd	0.064601876
147	0xbe10a39e	-0.14124915
148	0x3da755e5	0.0817068
149	0xbebcc7ff	-0.36871335
150	0x3e7ae762	0.24502328
151	0x3c0d574d	0.008626771
152	0xbe0bd55a	-0.13655606
153	0xbe3262f0	-0.17420554
154	0x3ed0f46e	0.40811485
155	0x3e75ad5c	0.23991913
156	0x3dc7c49d	0.09754298
157	0xbdcf21bf	-0.101138584
158	0xbe704bc1	-0.23466398
159	0xbef98f08	-0.48741937
160	0x3e9b0053	0.30273685
161	0xbe11e03f	-0.142457
162	0x3e7d6755	0.2474645
163	0xbe86d930	-0.26337576
164	0xbc086a67	-0.00832615
165	0xbea40c48	-0.3204062
166	0xbde43aff	-0.11144065
167	0xbe1b5a9d	-0.15171285
168	0x3d938549	0.072031565
169	0xbe3b55d2	-0.18294457
170	0x3e82347e	0.25430673
171	0x3e03dc40	0.12876987
172	0xbec78c0c	-0.38974035
173	0xbe26946e	-0.16267559
174	0x3e617114	0.22015792
175	0xbe5edf46	-0.2176486
176	0x3ef50bf7	0.4786069
177	0xbeb78b6d	-0.3584856
178	0xbd992afd	-0.074789025
179	0xbebf0af4	-0.37313044
180	0xbf3b232c	-0.73100543
181	0x3e7c6e69	0.24651493
182	0xbf1e2a27	-0.6178307
183	0xbef9ab29	-0.48763397
184	0xbd878f45	-0.06619123
185	0x3e6fa281	0.23401834
186	0x3d19ded9	0.03756604
187	0xbea14278	-0.31496024
188	0x3ec66841	0.38751414
189	0x3ba7b702	0.005118252
190	0x3f01a882	0.5064775
191	0x3ebdbe1f	0.37059113
192	0xbf1a4a1a	-0.6026932
193	0x3dde16a9	0.10844166
194	0x3e972ab8	0.2952478
195	0x3e51d8f8	0.20492923
196	0xbe7f51b5	-0.24933513
197	0xbee24908	-0.44196343
198	0xbe0d0ea3	-0.13775115
199	0xbd1f0217	-0.038820352
200	0xbe69dad5	-0.22837384
201	0x3d86e7d8	0.065871894
202	0xbe47d323	-0.19514136
203	0xbf33c61d	-0.7022417
204	0xbe5517dd	-0.20809884
205	0x3d137e17	0.03600892
206	0x3d212a16	0.039346777
207	0xbed349ce	-0.41267246
208	0xbe12371a	-0.14278832
209	0xbbeda9ea	-0.0072529214
210	0x3e61de44	0.22057444
211	0xbe5b64cf	-0.21425174
212	0x3e5c32cc	0.21503752
213	0xbf18d25a	-0.5969597
214	0xbee7fb58	-0.45308948
215	0xbe407c39	-0.18797387
216	0xbf017fcb	-0.5058562
217	0xbf97624f	-1.1826876
218	0x3edb4048	0.4282248
219	0x3f19476e	0.5987462
220	0x3d2c0dbf	0.042005297
221	0x3e546014	0.20739776
222	0x3e69aaf7	0.22819124
223	0x3e507818	0.20358312
224	0x3e58a97b	0.21158402
225	0x3f0230f4	0.50855947
226	0xbe24a1ae	-0.16077301
227	0xbe119fc8	-0.14221108
228	0x3dd03065	0.101654805
229	0xbd8a74af	-0.06760537
230	0x3d4c897d	0.049935807
231	0xbf87bf83	-1.060532
232	0xbdeef836	-0.11668436
233	0xbecf61bb	-0.4050425
234	0xbe4524c9	-0.19252314
235	0x3de075cc	0.10959968
236	0xbf0b43b5	-0.5440019
237	0xbe9327ab	-0.28741202
238	0xbb7cb453	-0.003855963
239	0x3c35673a	0.011071974
240	0xbec7168d	-0.38884392
241	0xbe4041a4	-0.1877504
242	0xbde1f0f1	-0.11032284
243	0xbe544d9b	-0.20732729
244	0x3e44a460	0.19203329
245	0x3de7332c	0.11289057
246	0x3ddfdee4	0.10931185
247	0xbe2484fc	-0.16066355
248	0x3d24d57d	0.04024266
249	0x3e51713a	0.20453349
250	0xbdd67d82	-0.104731575
251	0x3ec2cf74	0.380489
252	0x3ed05ff8	0.40698218
253	0xbe2de1cf	-0.1698067
254	0x3ceff087	0.029289497
255	0x3ddcf79d	0.10789416

conv2.bias f4 [32]
0	0xbe6b60cf	-0.22986148
1	0xbe82246e	-0.2541842
2	0xbe483ab4	-0.19553643
3	0xbe5c4438	-0.21510398
4	0x3bd4f675	0.0064991065
5	0xbeb8cb70	-0.3609271
6	0xbd8112e2	-0.0630243
7	0xbeb38c7b	-0.35068116
8	0xbe9ea6c2	-0.309866
9	0x3e723183	0.236517
10	0xbefd1158	-0.49427295
11	0xbd7fa442	-0.062412508
12	0xbec4060f	-0.38285872
13	0xbc4dc48b	-0.0125590665
14	0xbe917f4d	-0.28417435
15	0xbd43b455	-0.0477794
16	0x3e24bc7d	0.16087528
17	0xbedb5c66	-0.42843932
18	0xbe633981	-0.22189905
19	0x3e759487	0.2398244
20	0xbf018c34	-0.5060456
21	0x3e8f3700	0.2797165
22	0xbdb136e2	-0.08653046
23	0xbcfd5a31	-0.030926796
24	0xbdd05414	-0.10172287
25	0xbe2f5cd0	-0.17125249
26	0xbea5b4aa	-0.32364398
27	0xbd89e649	-0.067333765
28	0xbdf816bf	-0.121137135
29	0xbd0f4da8	-0.03498617
30	0xbf088be7	-0.53338474
31	0xbe97402f	-0.29541156

fc1.weight f4 [42, 1344]
0	0xbc90e8df	-0.017689167
1	0xbcbf6a9c	-0.023366265
2	0xbcaf1b7a	-0.021375407
3	0x3c43ef2f	0.011958881
4	0xbc93bcb2	-0.018034313
5	0xbb67fddb	-0.0035399112
6	0xbca00405	-0.019533167
7	0xbd231d66	-0.03982296
8	0x3c19c54b	0.009385417
9	0x3c8d9541	0.017283084
10	0x3c82f53f	0.015986083
11	0x3c94ebd6	0.018178862
12	0xbcbac32b	-0.022798141
13	0xbd478595	-0.048711378
14	0x3ba21896	0.0049467785
15	0xbcea6210	-0.028611213
16	0xbcb53233	-0.022118663
17	0xbb2dede3	-0.0026539497
18	0xbca68c7a	-0.020330656
19	0xbc82ca9d	-0.015965754
20	0xbc845158	-0.016152069
21	0xbcd01dc3	-0.025404816
22	0xbc9ca9c9	-0.019123929
23	0xbca708c8	-0.02038993
24	0xbcc66280	-0.02421689
25	0xbc2bfbd1	-0.010497049
26	0xbd66337c	-0.056201443
27	0x3ac92dd3	0.001534874
28	0x3c4b07c7	0.012391991
29	0x3b619200	0.0034419298
30	0xbccd74b6	-0.025080066
31	0xbc95efd3	-0.018302834
32	0xbd4c96cd	-0.049948502
33	0xbd232407	-0.03982928
34	0x3cc8a242	0.024491433
35	0x3c951168	0.018196777
36	0x3a19e776	0.0005870977
37	0x3ca8702d	0.020561302
38	0xbb8bb15e	-0.004263087
39	0x3ca31e59	0.019911932
40	0xbc0e6747	-0.008691615
41	0x3b29c1f7	0.0025902966
42	0xbc9ebefc	-0.019378178
43	0xbd54fbcb	-0.05199794
44	0x3bb55fb9	0.0055350927
45	0xbc7ed9c0	-0.015554845
46	0x3ccfc853	0.025364077
47	0x3c678475	0.014130701
48	0xbd59b2b7	-0.05314895
49	0x3c5c5744	0.01344854
50	0xbcd5607d	-0.026046986
51	0xbbc74566	-0.006081271
52	0xbc3d5144	-0.01155502
53	0x3ac688cd	0.0015146971
54	0xbcd002d7	-0.02539198
55	0x3c175fe6	0.009239173
56	0x3ca25887	0.019817604
57	0xbb33e17c	-0.0027447632
58	0x3ca0cb96	0.019628327
59	0xbc5421b5	-0.0129474895
60	0xbb70b191	-0.0036726932
61	0xbd2710c2	-0.040787466
62	0x3c29d967	0.010366774
63	0xbc25431e	-0.010086803
64	0x3cd32c6f	0.025778024
65	0x3c5fc54b	0.013657878
66	0xbc36a311	-0.0111472765
67	0x3b09e695	0.0021041979
68	0xbc7b2730	-0.015329167
69	0x3bbdc540	0.0057913363
70	0xbb3095f1	-0.002694484
71	0x3bab3dd9	0.0052258787
72	0x3bef9396	0.007311295
73	0xbc8e762a	-0.01739033
74	0xbcb54b44	-0.022130616
75	0x3be5965f	0.007006451
76	0xba34a83a	-0.0006891523
77	0xbb0c72ac	-0.0021430654
78	0xbc4cc9d7	-0.012499294
79	0xbd41b4fa	-0.047291733
80	0xbb10ba12	-0.0022083563
81	0xbc7303df	-0.014832466
82	0x3b2b32f0	0.002612289
83	0xbca22077	-0.019790871
84	0xbd0aa2b6	-0.03384658
85	0xbab9b13e	-0.0014167202
86	0x3c77a16e	0.015114171
87	0xbc5db254	-0.013531286
88	0x3ca85655	0.020548979
89	0xbd0674cf	-0.03282624
90	0xbd58b8b4	-0.05291052
91	0xbb4d8e63	-0.0031365387
92	0x3c87ba43	0.016568309
93	0xbcc72086	-0.0243075
94	0xbc76cab8	-0.01506298
95	0xbb85a71f	-0.0040787603
96	0xbcaa17b4	-0.020763256
97	0xbd07ff22	-0.033202298
98	0x3c97b95e	0.018521007
99	0xbc4a7caa	-0.012358824
100	0xba8d1d51	-0.0010766183
101	0x3bdb703e	0.00669673
102	0x3b135387	0.0022480206
103	0xbc9ff861	-0.019527616
104	0xbaf41068	-0.0018620612
105	0xbd130ef7	-0.035902943
106	0x3be32a24	0.006932514
107	0xbc2bef11	-0.01049401
108	0xbbfb3208	-0.0076658763
109	0xbcc13402	-0.02358437
110	0xbc9c1fb5	-0.019058088
111	0xbc4960f7	-0.012291185
112	0xbc58bcbc	-0.0132285915
113	0xbbd5f53d	-0.006529479
114	0x3c1cf4df	0.009579866
115	0xba95f2db	-0.0011440174
116	0xbc8d7e85	-0.017272243
117	0xbd4ee139	-0.050507758
118	0xbd04caf5	-0.032420117
119	0xbc80fd36	-0.01574574
120	0x3b6614f0	0.0035107695
121	0xbc8bf9fd	-0.017086977
122	0xbcc4258f	-0.02394369
123	0xbcc598cc	-0.02412071
124	0xbcaa14d5	-0.020761887
125	0xbc9d3575	-0.01919053
126	0x3ca4d4c8	0.020120993
127	0xbbd7bdab	-0.0065838895
128	0xbd302178	-0.04300067
129	0xbbeaadd7	-0.0071618366
130	0x3c7589d1	0.014986471
131	0xbb6d9a54	-0.0036255317
132	0x3cabc782	0.020969156
133	0xbc89ca91	-0.016820224
134	0x3b5bee4a	0.003355878
135	0xbc4d189b	-0.012518073
136	0x3c4992a0	0.0123030245
137	0xba0885c7	-0.00052079227
138	0x3ba46e42	0.0050180266
139	0x3cb879df	0.02251905
140	0x3c76a9a5	0.015055095
141	0x3cd68f4b	0.026191374
142	0xbc25fafb	-0.010130639
143	0xbc580503	-0.013184789
144	0x3b254bb9	0.0025222136
145	0x3c983918	0.018581912
146	0x3a9db138	0.0012030965
147	0xbbc9925e	-0.0061514815
148	0x3bf4d54f	0.0074717174
149	0xbc2eff85	-0.010681038
150	0xbc1858aa	-0.009298483
151	0xbd477915	-0.048699457
152	0xbd09f539	-0.03368113
153	0xbca4edb2	-0.020132873
154	0xbc44d5b1	-0.012013839
155	0xbcf8f660	-0.030390918
156	0xbc93b6fc	-0.01803159
157	0xbc2f0cee	-0.010684235
158	0xbd0b68c5	-0.034035463
159	0xbce5edfe	-0.028067585
160	0xbd4a2b96	-0.049357973
161	0xbb93349f	-0.004492357
162	0xbcb9a5e4	-0.02266211
163	0x38441c82	4.675659e-05
164	0xbd149634	-0.036276057
165	0xbca333f2	-0.01992223
166	0x3c943286	0.018090498
167	0xbc8ccf15	-0.017188588
168	0x39240361	0.00015641518
169	0x3c1ddfce	0.009635879
170	0xbce7cda8	-0.028296307
171	0xbc11946b	-0.008885483
172	0x3bec8af1	0.0072187115
173	0xbc9f566a	-0.019450385
174	0xbbee307a	-0.0072689625
175	0xbb038adf	-0.0020071787
176	0xbd72cb87	-0.05927613
177	0xbc6dead6	-0.014521321
178	0xbcdd258e	-0.026995447
179	0xbc9274fc	-0.017878048
180	0xbcf1ded2	-0.029525194
181	0xbc153d3a	-0.009108836
182	0xbcbef3bb	-0.02330958
183	0xbc934d76	-0.017981272
184	0x3c2e9f5a	0.01065811
185	0xbc84e545	-0.016222605
186	0xbc9995dc	-0.018748216
187	0xbb765ff2	-0.003759381
188	0x3c3e24bd	0.011605439
189	0xbcc7c56e	-0.024386134
190	0xbcb92d73	-0.02260468
191	0xbd3ce7bf	-0.046119448
192	0xbcb4fbd2	-0.022092734
193	0xbc9b386e	-0.018947806
194	0xbc5c4ce2	-0.013446065
195	0xbcd182ac	-0.025575005
196	0xbcac7282	-0.021050695
197	0x3c42892d	0.011873526
198	0xbcbb9ee3	-0.022902912
199	0xbc47c4f1	-0.012192951
200	0xbc770766	-0.0150774475
201	0xbcbe58c1	-0.02323568
202	0xbc7fb20b	-0.015606414
203	0xbd04a935	-0.03238793
204	0xbc4667df	-0.012109726
205	0xbb3ed74f	-0.0029120033
206	0x3ba309f5	0.004975552
207	0x3bd7f2ac	0.006590208
208	0x3c05428a	0.00813354
209	0x3b00d21a	0.001965648
210	0xbca16356	-0.019700687
211	0x3cb59851	0.022167357
212	0xbd2bba83	-0.04192592
213	0x3cbcdb81	0.023053886
214	0xbbf84482	-0.007576526
215	0xbd5bb94a	-0.053643502
216	0xbc89a02c	-0.016800009
217	0xbd366eaf	-0.04453915
218	0xbb1fb594	-0.0024369704
219	0xbab4e7f3	-0.0013802036
220	0x3c37576c	0.011190277
221	0x3cb5e360	0.022203147
222	0xbc58e8f7	-0.013239137
223	0x3cd7bc9e	0.026335057
224	0x3b584fd9	0.0033006577
225	0x3c858dd6	0.016302984
226	0xbbc6b6cc	-0.0060642716
227	0x3c7e23c8	0.015511461
228	0xbce91fcd	-0.028457547
229	0xbd0ffd06	-0.03515341
230	0x3c8e3458	0.017358944
231	0xbc9762e9	-0.018479781
232	0x3ba5795c	0.0050498676
233	0xbb7670a6	-0.0037603765
234	0xbcbbea01	-0.02293873
235	0x3b93ad3e	0.004506736
236	0x3ab39317	0.0013700452
237	0xbc6338d0	-0.013868526
238	0xbc82b765	-0.01595659
239	0x3beac0e9	0.00716411
240	0xbce11776	-0.027477007
241	0xbb3b5ef6	-0.0028590537
242	0x3c6de1d0	0.01451917
243	0xbcaf47ac	-0.02139648
244	0xbc93cd26	-0.018042158
245	0xbd084561	-0.03326929
246	0xbcaed0cf	-0.021339802
247	0xbc391150	-0.0112956315
248	0xbcb50a4d	-0.022099638
249	0x3bf36272	0.007427507
250	0x3c9c1546	0.019053113
251	0xbc2471d4	-0.010036904
252	0xbcb8274d	-0.022479678
253	0x3a9d0d35	0.0011982085
254	0x3c815c99	0.015791224
255	0xbd0a048a	-0.033695735

fc1.bias f4 [42]
0	0xbd824031	-0.063599
1	0xbd6c9855	-0.057762463
2	0xbd5d4d0f	-0.054028567
3	0x3e0c5f3e	0.13708207
4	0x3cec10bf	0.028816579
5	0x3dfec195	0.124392666
6	0xbdf93c0e	-0.12169658
7	0x3d640bc4	0.055675283
8	0x39f78f71	0.00047218383
9	0xbba90a27	-0.005158681
10	0xbd925345	-0.07144789
11	0xbed10dc4	-0.40830815
12	0xbd472d4a	-0.048627175
13	0xbc0467f2	-0.008081423
14	0xbcd1c4fb	-0.025606623
15	0xbd55f056	-0.052231155
16	0x3eab508e	0.33459896
17	0xbe243fec	-0.1604001
18	0x3eb745ed	0.35795537
19	0xbcd0ba4a	-0.025479455
20	0xbecab013	-0.3958746
21	0xbd5eca50	-0.05439216
22	0xbb58252a	-0.0032981136
23	0xbde0a4ae	-0.1096891
24	0xbe8a122a	-0.26966983
25	0xbe372dcb	-0.17888562
26	0xbd3b8059	-0.0457767
27	0xbc84e8d8	-0.01622431
28	0xbb0ec0c6	-0.0021782382
29	0xbe0916a0	-0.13387537
30	0xbe2090aa	-0.15680185
31	0x3d0f8d5c	0.03504692
32	0x3e0bf444	0.13667399
33	0xbe309e6a	-0.1724793
34	0x3e64e384	0.22352415
35	0x3e67ac32	0.22624281
36	0xbe43cff6	-0.191223
37	0xbebcc28e	-0.36867183
38	0xbe0530bc	-0.13006872
39	0xbd7bcf58	-0.061477035
40	0x3eccc4b0	0.3999381
41	0x3b272dcc	0.0025509475

fc2.weight f4 [42, 42]
0	0x3d702d47	0.05863693
1	0xbf05c9ba	-0.52260935
2	0xbd7e5fa9	-0.062102947
3	0xbeb1a3c4	-0.34695256
4	0x3e84d45a	0.2594326
5	0xbd7bdad1	-0.061487976
6	0xbea2bcb4	-0.31784594
7	0x3d866cb0	0.06563699
8	0x3c2dc720	0.010606557
9	0xbc107847	-0.008817739
10	0x3e49a467	0.19691621
11	0xbe36d5c2	-0.1785498
12	0x3e060530	0.13087916
13	0xbe13e4c1	-0.14442731
14	0x3dd3ded8	0.103452384
15	0xbd85d07e	-0.06533907
16	0xbe488275	-0.19581015
17	0xbea4bfae	-0.3217749
18	0x3e9845c8	0.2974074
19	0xbdbb36ec	-0.09141335
20	0x3eedc80f	0.46441695
21	0x3e11daa4	0.14243561
22	0x3bd897d5	0.0066098967
23	0x3db1a294	0.086735874
24	0x3ddbc38d	0.10730658
25	0xbf19dc75	-0.60102016
26	0x3dbf2560	0.093333006
27	0xbd320b20	-0.04346764
28	0xbc12d24b	-0.008961271
29	0x3e54d135	0.20782931
30	0xbf3fb1f5	-0.74880916
31	0x3bd8d832	0.0066175694
32	0xbe57654e	-0.21034738
33	0xbf143295	-0.5788968
34	0xbf6526a8	-0.8951211
35	0xbe34c6a5	-0.17653902
36	0xbf8b9f8b	-1.0908064
37	0x3d6b7b99	0.05749092
38	0x3db6dbee	0.08928667
39	0x3e182ed2	0.1486161
40	0xbd718ce2	-0.058972247
41	0xbe05366e	-0.13009045
42	0x3e04c7bd	0.12966819
43	0xbb58c0b1	-0.0033073837
44	0x3d9e46a5	0.07728318
45	0xbeecc945	-0.46247306
46	0x3b673f99	0.003528571
47	0xbd324814	-0.04352577
48	0xbdbd2de6	-0.0923727
49	0xbd8c9ec2	-0.06866218
50	0x3d29664a	0.041357316
51	0xbed71218	-0.42005992
52	0xbe07706f	-0.13226484
53	0xbd751168	-0.059831053
54	0xbdb6cf65	-0.08926276
55	0xbb86f61a	-0.004118693
56	0x3c584dae	0.013202114
57	0x3bb3b54f	0.00548426
58	0x3e00c97f	0.12576865
59	0x3ef5798b	0.47944292
60	0x3e86da4f	0.2633843
61	0x3d165576	0.036702596
62	0x3e48141b	0.1953892
63	0x3de43c50	0.11144316
64	0x3dae7ab0	0.085194945
65	0xbd8c8890	-0.06861985
66	0x3dbe5297	0.092930965
67	0xbee99b3f	-0.45626256
68	0xbe10cf82	-0.14141658
69	0xbe1eb934	-0.15500337
70	0x3d69ae66	0.057051085
71	0x3e56da22	0.20981649
72	0xbf738603	-0.9512636
73	0xbe41e216	-0.18933901
74	0x3dfb7802	0.12278749
75	0xbf120926	-0.5704521
76	0x3e1c96a5	0.15291841
77	0xbe2a9f7b	-0.166624
78	0xbeea451b	-0.45755848
79	0xbf3316fb	-0.6995694
80	0x3dd66fee	0.10470568
81	0xbde52619	-0.11188907
82	0x3c3bcb2c	0.011462014
83	0xbe2276c1	-0.15865614
84	0xbd3d8fec	-0.046279833
85	0xbf0a0d7e	-0.5392684
86	0x3e0a0edd	0.13482232
87	0xbf08aafb	-0.53385895
88	0x3e28183e	0.16415498
89	0x3e10d006	0.14141855
90	0x3db0e9c9	0.08638341
91	0x3de2680b	0.11055001
92	0x3dd17678	0.10227674
93	0xbec0b7ab	-0.37640128
94	0xbf9dde2d	-1.2333428
95	0x3e975409	0.295563
96	0xbd2a1672	-0.04152531
97	0xbd82b240	-0.06381655
98	0x3d42e475	0.047581155
99	0xbdfdf81c	-0.12400839
100	0xbdcea4aa	-0.10090001
101	0x3e88aa18	0.2669227
102	0x3d82407e	0.06359957
103	0x3dc03712	0.09385504
104	0xbd481e1c	-0.04885684
105	0xbd91ece2	-0.0712526
106	0xbc3e1a50	-0.011602953
107	0x3e55fc39	0.20896997
108	0xbe982742	-0.2971745
109	0xbeaf8b88	-0.3428614
110	0x3cc52c6d	0.024069035
111	0xbe09cdfa	-0.1345748
112	0x3d89b06c	0.06723103
113	0x3daafee7	0.083494
114	0x3d48a9bb	0.048989993
115	0x3d14bf30	0.036315143
116	0xbf01866b	-0.5059573
117	0x3e179037	0.14801107
118	0x3e328f6f	0.17437528
119	0x3e415bca	0.18882671
120	0xbdb9a8f7	-0.090654306
121	0x3ea5881e	0.32330412
122	0x3d6750b0	0.056473434
123	0x3e219ad9	0.15781726
124	0xbdfb55c1	-0.12272216
125	0x3d1a2979	0.037637208
126	0xbddf438e	-0.10901557
127	0x3e41acea	0.18913618
128	0xbe095c9c	-0.13414234
129	0xbde9910d	-0.11404619
130	0xbbfe2b69	-0.0077566397
131	0xbe281897	-0.1641563
132	0xbecdd92e	-0.40204757
133	0xbe915db1	-0.28391793
134	0xbdb78c07	-0.08962255
135	0xbc555d8c	-0.013022792
136	0x3dc30a80	0.09523487
137	0xbd91e198	-0.07123107
138	0x3cf953c2	0.030435447
139	0xbe309213	-0.17243223
140	0xbdd34abe	-0.1031699
141	0xbd46c8ea	-0.04853145
142	0xbe958018	-0.2919929
143	0xbe78d4f5	-0.24299987
144	0xbf0602c0	-0.52347946
145	0x3d9a1089	0.07522685
146	0x3e4abc86	0.19798478
147	0xbce31d51	-0.02772394
148	0x3d345dfb	0.04403494
149	0x3d8e0dda	0.06936236
150	0x3ae7891b	0.0017664762
151	0x3ebcd549	0.36881474
152	0x3d3b787e	0.045769207
153	0x3cb4ab53	0.02205435
154	0x3cf2cc49	0.029638426
155	0x3e3dbd1f	0.18529175
156	0xbebd8406	-0.37014788
157	0x3d6efe06	0.058347724
158	0x3e736b51	0.23771407
159	0x3e2ba3d3	0.16761713
160	0x3e72acf4	0.23698789
161	0x3c9c6928	0.019093111
162	0xbdba4ae9	-0.09096319
163	0xbe559e6d	-0.20861216
164	0xbe109a3e	-0.14121339
165	0x3cfa5cad	0.03056177
166	0xbead40b3	-0.33838424
167	0xbc9958ae	-0.018719044
168	0xbe1a5802	-0.15072635
169	0xbdf02bcb	-0.11727103
170	0xbdb504f9	-0.08838839
171	0x3d8f2728	0.0698989
172	0xbc9dcc97	-0.019262595
173	0xbe7a1165	-0.24420698
174	0x3e7784c6	0.24171743
175	0xbd3d45ab	-0.04620902
176	0x3e1d4eba	0.15362063
177	0x3ee248f3	0.4419628
178	0xbdaefe5c	-0.08544609
179	0xbeaa8403	-0.33303842
180	0xbd1ed275	-0.038774926
181	0xbdcaa180	-0.09894085
182	0xbd9bc670	-0.07606208
183	0xbddd27e6	-0.10798626
184	0x3ea28fb4	0.31750262
185	0x3e28cdc5	0.16484745
186	0xbe51f1fe	-0.20502469
187	0xbdc06659	-0.09394521
188	0x3ccb6a79	0.024831044
189	0xbc491de1	-0.01227519
190	0xbd53b727	-0.05168834
191	0xbd957101	-0.072969444
192	0x3e4fa201	0.20276643
193	0xbf06c8ec	-0.5265033
194	0x3d41c9f0	0.047311723
195	0xbdca04fd	-0.09864233
196	0xbca5fe2e	-0.020262804
197	0x3b8eb44d	0.0043549896
198	0x3dd1c3f8	0.10242456
199	0xbf01c78f	-0.5069513
200	0x3d92d388	0.07169253
201	0xbf263c74	-0.64935994
202	0xbe2f8964	-0.17142254
203	0x3d8fa91e	0.070146784
204	0x3e54c92a	0.20779863
205	0x3eb12f2f	0.3460631
206	0x3e7d53eb	0.24739043
207	0xbc81b247	-0.01583208
208	0xbe900ea6	-0.28136176
209	0xbd8aae2f	-0.06771504
210	0xbe04f0be	-0.12982461
211	0x3c2c113d	0.010502157
212	0xbdb60353	-0.08887353
213	0xbd94de78	-0.07268995
214	0x3d88de15	0.06682984
215	0x3e1ecf4f	0.1550877
216	0xbe88b7d7	-0.2670276
217	0xbeb690d6	-0.35657376
218	0xbd2a9aef	-0.041651662
219	0xbe856730	-0.26055288
220	0xbe4fffbb	-0.20312397
221	0xbed08f27	-0.40734217
222	0xbe0e0a60	-0.13871145
223	0xba8a2a6b	-0.0010541206
224	0xbd3fbc1d	-0.04681026
225	0x3b3a08f5	0.0028386686
226	0xbdc77f33	-0.09741058
227	0xbee53033	-0.44763336
228	0x3dcce5c3	0.10004761
229	0xbe222f97	-0.15838467
230	0xbf0364c9	-0.5132566
231	0x3d9e7bf0	0.07738483
232	0x3d7d166c	0.06178896
233	0xbeb1fd36	-0.34763497
234	0xbf05dc2f	-0.522891
235	0x3ea72f43	0.32653245
236	0xbcbd1739	-0.023082362
237	0xbde96459	-0.11396093
238	0x3cfc26d0	0.030780226
239	0xbecea57d	-0.40360633
240	0x3a9e8748	0.001209476
241	0x3e5ced1f	0.2157483
242	0x3e3f774a	0.18697849
243	0x3ee27596	0.44230336
244	0xbdb122c6	-0.08649211
245	0x3e7aa6a4	0.24477631
246	0xbeafe64f	-0.343554
247	0xbe6d385f	-0.23166035
248	0x3d8ee576	0.0697736
249	0xbe008a62	-0.12552789
250	0x3d940486	0.07227425
251	0xbdce901b	-0.1008608
252	0xbe1aaa53	-0.15104036
253	0xbf851f72	-1.0400221
254	0xbd8aadea	-0.06771453
255	0xbd0ff43b	-0.035145026

fc2.bias f4 [42]
0	0xbd27f108	-0.04100135
1	0xbd9e4fec	-0.07730088
2	0xbd20dafc	-0.03927134
3	0xbf01fdac	-0.507777
4	0xbf2866de	-0.6578196
5	0x3f001b1f	0.50041384
6	0xbe4a14ea	-0.1973454
7	0xbe01f898	-0.12692487
8	0xbe7f069a	-0.24904862
9	0x3d0b7394	0.03404577
10	0xbea0b03a	-0.3138445
11	0xbe890808	-0.2676394
12	0x3e4afa44	0.19822031
13	0x3e3db140	0.18524647
14	0xbe453c91	-0.19261386
15	0xbe93a96d	-0.288402
16	0xbe7b0dba	-0.24516955
17	0x3ecb0de1	0.39659026
18	0x3dbf284a	0.093338564
19	0xbe40797c	-0.18796343
20	0xbe887a3a	-0.2665575
21	0xbd94c88e	-0.07264815
22	0xbd8360b5	-0.0641493
23	0x3e51e72b	0.2049834
24	0xbf5d3a58	-0.8641715
25	0xbfa10ec2	-1.2582629
26	0xbf79421e	-0.9736651
27	0x3e320d37	0.17387854
28	0x3edfdca6	0.4372303
29	0x3eda1c55	0.4259974
30	0xbf0536b1	-0.5203658
31	0x3e14a0a8	0.1451441
32	0xbe6d0552	-0.23146561
33	0xbd794b81	-0.06086302
34	0x3e4ccdf1	0.20000435
35	0x3d9d18d5	0.07670752
36	0xbeb4ed10	-0.35337114
37	0x3d515ba5	0.05111279
38	0x3c0ac39a	0.008469487
39	0x3e02fb8e	0.12791273
40	0x3e0711c2	0.13190368
41	0xbea3f8d0	-0.32025766

out.weight f4 [7, 42]
0	0x3bb2077b	0.0054330206
1	0xbdd1268e	-0.10212432
2	0x3e46ddc9	0.19420542
3	0x3de9af36	0.11410372
4	0x3b8f04c9	0.004364584
5	0xbddbab32	-0.10726012
6	0xbea8463a	-0.3286608
7	0xbd296bc9	-0.041362558
8	0x3e01660b	0.12636583
9	0xbd900203	-0.07031634
10	0xbdc243eb	-0.094856106
11	0xbc7a7492	-0.015286582
12	0xbe245c22	-0.16050771
13	0xbdcf7a46	-0.10130744
14	0x3e74db01	0.23911668
15	0x3e4c9965	0.1998039
16	0xbe091e75	-0.13390525
17	0x3e1f2da1	0.1554475
18	0x3cbf3f06	0.023345482
19	0xbe62ac2e	-0.22135994
20	0x3e251a40	0.16123295
21	0xbe36c1d4	-0.17847377
22	0x3e3abd07	0.1823617
23	0x3e782482	0.24232677
24	0x3e3ef1d7	0.18646942
25	0xbdafe221	-0.085880525
26	0x3e58b6c3	0.21163468
27	0x3d851b43	0.064993404
28	0xbdd6e294	-0.10492435
29	0xbdeaed50	-0.11471045
30	0xbd909280	-0.07059193
31	0x3d295266	0.041338347
32	0xbe298bdc	-0.16557258
33	0x3e1120b7	0.14172636
34	0x3bc58e90	0.0060289577
35	0x3e05f659	0.13082255
36	0xbe0d0eb2	-0.13775137
37	0x3de7b9dd	0.113147475
38	0x3d24da6c	0.040247366
39	0x3d977042	0.07394458
40	0xbf205b59	-0.62639385
41	0x3e3fdf51	0.18737532
42	0xbea7dc46	-0.32785243
43	0x3c996657	0.018725557
44	0xbd9c8b8a	-0.076438025
45	0xbceb63f3	-0.028734183
46	0x3d4189c5	0.047250528
47	0xbea62c8a	-0.32455856
48	0x3dea2154	0.11432138
49	0xbdaf372e	-0.085554466
50	0xbe05bb44	-0.13059717
51	0x3ca49384	0.020089872
52	0x3c94b410	0.018152267
53	0xbded42de	-0.115850195
54	0x3ced9bff	0.029005049
55	0xbd9a7a67	-0.07542878
56	0x3d5e9d30	0.054349124
57	0x3d48bf46	0.049010538
58	0xbd52a915	-0.05143078
59	0x3cdb3905	0.026760587
60	0x3e3377c0	0.1752615
61	0xbe7c9ce8	-0.2466923
62	0x3d8166d5	0.06318442
63	0xbd010d73	-0.031506967
64	0x3d0ccfe2	0.03437794
65	0x3d6ec2f3	0.058291387
66	0xbe0ef096	-0.13958964
67	0xbe33b7f2	-0.17550638
68	0x3e801cf4	0.2502209
69	0x3e4862cf	0.19568942
70	0xbcc0810b	-0.023499032
71	0xbd4fcc12	-0.050731726
72	0xbeb6ab5d	-0.35677615
73	0xbe5f79ad	-0.2182376
74	0xbcd6aab3	-0.026204443
75	0x3d8547cd	0.065078355
76	0xbd32a931	-0.043618385
77	0x3dd5359a	0.10410614
78	0x3d839b2c	0.06426081
79	0x3c32999d	0.010900882
80	0x3e041b0e	0.12900946
81	0x3e1803ea	0.14845243
82	0x3e80d7af	0.25164554
83	0x3e0aab82	0.13541988
84	0xbe719caa	-0.23594919
85	0xbd989595	-0.074504055
86	0xbe0244bd	-0.12721534
87	0x3e5cf852	0.21579102
88	0x3e121813	0.14266996
89	0xbd6803be	-0.056644194
90	0xbe7b328f	-0.24531005
91	0x3c266584	0.010156039
92	0x3ca9fceb	0.020750483
93	0x3c8cb2a4	0.017175026
94	0xbd7e2e16	-0.06205567
95	0xbe0c9e32	-0.13732222
96	0xbd5c37f5	-0.053764302
97	0xbe3b7ea1	-0.18310024
98	0x3d92428d	0.071416
99	0x3e0afe60	0.13573599
100	0xbd86de2a	-0.06585343
101	0x3c045d5c	0.008078899
102	0x3d830324	0.063970834
103	0x3d8e46ef	0.06947123
104	0x3e847c36	0.25876015
105	0xbe8330a8	-0.2562306
106	0xbcff6cb9	-0.031179773
107	0x3e2bf717	0.16793476
108	0x3d03454e	0.032048516
109	0xbdf0d30f	-0.11759006
110	0x3d0ee36e	0.034884863
111	0x3d96d9cd	0.07365761
112	0x3d9698de	0.07353376
113	0xbcdd91d4	-0.027047075
114	0x3dacd496	0.08438985
115	0xbe1cc570	-0.15309691
116	0xbe4ddf78	-0.20104778
117	0xbe9df111	-0.30847982
118	0xbd98e604	-0.07465747
119	0x3dbbfd67	0.09179192
120	0x3d68417b	0.056703072
121	0x3e59acdd	0.21257348
122	0xbcab17cf	-0.020885376
123	0x3e03d60f	0.12874626
124	0x3eac093c	0.33600795
125	0x3e5ae631	0.21376874
126	0x3da7d4c5	0.081948794
127	0xbd4f0e24	-0.050550595
128	0x3e264725	0.16238077
129	0x3d8833e7	0.066505246
130	0x3db09757	0.08622616
131	0xbe048887	-0.12942706
132	0x3d1f0503	0.03882314
133	0xbcdc03b9	-0.026857244
134	0xbccd7cb3	-0.025083875
135	0x3dd3e305	0.10346035
136	0x3de02e30	0.109463096
137	0xbe2aa654	-0.16665012
138	0xbd6dc8d1	-0.05805284
139	0xbd94e10e	-0.07269488
140	0xbd88bafb	-0.06676289
141	0x3e48b246	0.19599256
142	0x3d3f4aec	0.04670231
143	0xbe30fd6e	-0.17284176
144	0x3e1d9d61	0.15392067
145	0x3e086c24	0.13322502
146	0x3cc5f8af	0.024166433
147	0xbdfeb755	-0.124373116
148	0x3c80fd19	0.015745686
149	0x3e82b966	0.25532073
150	0x3b950bcb	0.004548525
151	0x3dd9641c	0.106147975
152	0xbe2214b4	-0.1582821
153	0xbbf6416a	-0.007515122
154	0xbd0c9ea9	-0.034330998
155	0xbe995b0e	-0.29952282
156	0x3d23dedc	0.040007457
157	0xbe745d81	-0.23863794
158	0xbdb5ef23	-0.08883502
159	0x3e199f74	0.15002233
160	0xbe21842d	-0.15773077
161	0x3e1bd0ee	0.15216419
162	0x3d1bd913	0.038048815
163	0x3ead819e	0.33887953
164	0xbd8f9ffe	-0.07012938
165	0x3dce45c2	0.10071899
166	0x3e6cd827	0.2312933
167	0xbe6d9d20	-0.2320447
168	0x3e80b3cf	0.25137183
169	0xbe6ec958	-0.23318994
170	0xbddc9342	-0.10770275
171	0x3dd08292	0.10181154
172	0x3e1ef520	0.15523195
173	0xbe84111a	-0.25794297
174	0x3c1da774	0.0096224435
175	0x3d3a7b7a	0.045527913
176	0x3db2179b	0.08695909
177	0xbd158cc1	-0.036511187
178	0xbe124576	-0.1428431
179	0x3d2b02b8	0.04175064
180	0xbe1a9354	-0.15095264
181	0xbdadcfb6	-0.08486883
182	0x3e1018fd	0.14072032
183	0x3cb9b284	0.02266813
184	0x3d11d800	0.035606384
185	0xbe55c8f0	-0.20877433
186	0xbdf72019	-0.12066669
187	0x3d6cc217	0.057802286
188	0x3dafd2c5	0.08585123
189	0xbd1fb1e7	-0.03898802
190	0x3d6d6469	0.057957087
191	0x3e5b3467	0.21406709
192	0x3dbd5585	0.09244827
193	0xbc27bac2	-0.010237398
194	0xbe953d86	-0.291485
195	0x3cd0816c	0.025452338
196	0x3c94dae5	0.018170783
197	0xbe2de2f3	-0.16981106
198	0x3c90b28d	0.017663265
199	0x3e068cc0	0.1313963
200	0x3d9b1c0b	0.07573708
201	0xbe5c2b86	-0.21500978
202	0x3ccf6f2d	0.025321567
203	0x3d95237d	0.072821595
204	0x3da2eeea	0.079557255
205	0x3e2b4377	0.16724955
206	0x3e7a7080	0.24456978
207	0x3dd94001	0.10607911
208	0x3d385c53	0.045009922
209	0x3d256c30	0.04038638
210	0x3db54295	0.0885059
211	0x3d8e6097	0.06952017
212	0xbe0b3853	-0.13595705
213	0xbdb750dd	-0.0895097
214	0x3e1c9288	0.15290272
215	0xbddb05b7	-0.106944494
216	0x3dc588bc	0.09645221
217	0xbdb52686	-0.088452384
218	0x3e6f0513	0.2334178
219	0xbdefc4d9	-0.117074676
220	0xbb98ec77	-0.0046668607
221	0xbccae7eb	-0.02476879
222	0xbcd71f31	-0.02625999
223	0xbce70dd7	-0.028204842
224	0x3ea2c720	0.31792545
225	0x3e05534a	0.13020054
226	0x3c942a02	0.018086437
227	0x3e8c357c	0.27384555
228	0xbd8a1a1c	-0.06743261
229	0x3de97a6c	0.11400303
230	0x3d9e5124	0.0773032
231	0xbe8e36af	-0.27776095
232	0xbc458293	-0.012055057
233	0xbcec4d37	-0.028845413
234	0xbbedd7d3	-0.0072583943
235	0x3d6ba5c0	0.05753112
236	0xbea51cce	-0.3224854
237	0xbd4fba1e	-0.050714605
238	0xbc7b7ac9	-0.0153490985
239	0xbe4c2d6f	-0.19939207
240	0xbe60723e	-0.2191858
241	0xbd7a5de9	-0.061124716
242	0x3ed24a1d	0.4107217
243	0xbd64671e	-0.055762403
244	0xbdc2a597	-0.0950424
245	0x3e37bbf8	0.17942798
246	0x3e2055dd	0.15657754
247	0x3d6817b6	0.056663238
248	0x3e55a2b5	0.20862849
249	0x3db6d054	0.08926454
250	0x3e4f8acf	0.20267795
251	0x3e84a1e9	0.25904778
252	0xbcf62afa	-0.03004979
253	0x3cc3718f	0.02385786
254	0x3d70b5f7	0.058767285
255	0x3e8351ca	0.25648338

out.bias f4 [7]
0	0xbe935baa	-0.28780872
1	0xbe08482e	-0.13308784
2	0xbe9b3572	-0.30314213
3	0xbda6c23d	-0.08142517
4	0xbdd4f685	-0.10398582
5	0xbe1f60e3	-0.15564303
6	0xbca95b95	-0.020673553
