C4.pth (torch, 343474 bytes, 10 tensors)

conv1.weight f4 [32, 1, 5, 5]
00000000: 33ef 473e 1cb7 c8be 32de d43e 3601 693e
00000010: b353 513e d657 46bf b5b2 8c3e c1cb cd3d
00000020: 030a 8fbe 98ea 143e 12b5 c1bd 68ab 773e
00000030: 0853 21bf 39d8 883d f8d4 29be af60 e13e
00000040: a232 003e 01aa 92be fd6e 10bf 3042 1a3e
00000050: 424b d8be 6ca2 acbc 1a70 08bf 4a4a ad3d
00000060: de8e b13e b821 9c3d e261 69be 4f9a 9d3e
00000070: bafb 073f bce1 5ebf fff6 a4bd b30a 00be
00000080: 5247 2ebe b694 15be e1f8 47be 891d f23e
00000090: 43f2 5d3e 26ca 16bd 24cc bebe c28e 88bd
000000a0: 459a 903d 5b45 333e 73d2 6a3e 5942 c63d
000000b0: 41a2 05bf 6eed e6be 9cf3 debd f49f c6bb
000000c0: 2dbb 183f 7e57 16be 8694 893e e829 83bf
000000d0: df01 463f 8c20 5cbf 1b06 0ebe 8906 c13d
000000e0: 17ce 8fbe 5568 1ebe c70f cf3b 1d85 693e
000000f0: ff89 513e 13da 293e 7541 20bf 0581 2e3e
00000100: 3793 b33d 6dff 3dbe b696 823e dfc2 1e3e
00000110: 9234 a03d 5ab0 e5be a5e7 ab3e 59b0 9ebe
00000120: 7a6d 3bbe 493f a13e ea04 8dbd 8f4a 773e
00000130: 16d8 64bc a8bc 203e 1d7f bdbd 8502 2abf
00000140: 1a01 083e af02 213e b8ea ac3d 3ec3 963d
00000150: 3ed8 acbe 529d 1abf b0b7 cbba 99a8 df3e
00000160: 7f65 823e 30e7 d5be a718 ca3d d4c1 ebbd
00000170: 9d50 0ebf 7bea 8f3e f743 3b3e e775 f73e
00000180: 5e28 dcbd de80 b3bd e378 f8be 9be9 9a3e
00000190: c655 a83c 89d1 963e cfc1 a23e 8110 993e
000001a0: 7b38 353e fb05 9dba 7315 973e 63b9 0cbe
000001b0: 8db8 05be aa6b 693d ba50 0ebf 7300 a73e
000001c0: 2003 74be bce6 493e d92b cabe 377a 79be
000001d0: bf20 4c3e 51fd dfbe f15e fe3e fc86 1ebe
000001e0: 69ca b8be 8831 34be 1875 13bf 26aa b0bd
000001f0: a717 a13e 8984 823d f46e b6be a7ff 233f
00000200: 0790 9dbe c13f 3f3d c01b b43d 3272 a6be
00000210: e0d5 1bbe abf1 9abe 2455 50be fa7f 603e
00000220: 7f2b 3abe 2dbe 02bf 8669 383e 572e 36be
00000230: 13b7 fbbe 6bd7 ea3e 4da1 30be f8e2 fc3e
00000240: a26d 78be 4e5c 91be 570a 2e3e 1b7e 9dbe
00000250: 2b9b cebe 5236 df3e fb05 0ebf 933f b1be
00000260: 684d 373f 6db6 10bf 15d3 4e3e d51b 37bc
00000270: 6304 0ebf a977 0cbe 0428 27be a528 1e3e
00000280: 6d53 1abe 643e 053e c1a2 f9be 41ee 36bd
00000290: f5ef 003e 92cd d23d 5b31 a23d 9242 d23e
000002a0: 0477 2dbd c67b 93be 8019 b73e 1eb7 853e
000002b0: 4050 1a3e 09c8 e3be 6297 9dbe 3e5a 00bf
000002c0: bd26 73bf 2a3b 5c3e 4795 1c3d e4d4 0d3e
000002d0: 3691 d33d ad29 9dbd 6eeb 52be 6178 33bc
000002e0: a0c2 d73d 317a 07be c492 313c a14e fabd
000002f0: dd70 933e d965 9c3e 20db 093f 4b96 3b3e
00000300: 80f3 35bd 6676 253e d81c dbbe c649 e3bd
00000310: 7c80 d9bd 2766 843c fa3f 14bf a52b 2c3f
00000320: 9dd1 b7be 7ddc f43e 4459 30be c2db 16be
00000330: 2d87 76be e851 a0be 3876 283f b7e0 223e
00000340: 8e96 bbbe 6182 32be 0aba a1be 5f38 6abd
00000350: 5e5e 6e3e 4fb7 0bbf ee75 49be 19d6 97be
00000360: 156e a4be 5d4e 9a3e 1116 7a3e b508 23bf
00000370: 254f 86be abef 8f3e 5a52 1b3e 1ebb 2cbe
00000380: d2d5 c53c b252 b73d 536f f0be 6bf6 843e
00000390: d4ca 2ebf 123a 093e b253 ed3e 21e3 f93d
000003a0: e501 45bd e86b 21bf 3dcc c63d 3a53 e5be
000003b0: d0ee d9bb eef5 9dbe 26f2 53be 863e ff3e
000003c0: e550 053f 3e61 303e d7df 01bf c701 223e
000003d0: a8ec 2c3e 4055 d93e f66f 9bbe 72ae b53d
000003e0: 7e69 11bf 5f50 9e3b a2e9 9b3e 69f1 e3bd
000003f0: 5a48 27be 3eba debe 20d7 e9ba 080e 98be
0.19524841 -0.392022 0.41575772 0.22754368 0.20442085 -0.77477777 0.27480093 0.100486286
-0.27937326 0.14542615 -0.094583645 0.2418648 -0.6301732 0.06681866 -0.16585147 0.44019076
0.12519315 -0.28645328 -0.56419355 0.15064311 -0.42244917 -0.021073543 -0.53296053 0.08461435
0.34679312 0.07623619 -0.22791246 0.3078179 0.5311848 -0.87063193 -0.08054923 -0.12504081
-0.17019394 -0.1460751 -0.19528534 0.4728816 0.21674447 -0.036813878 -0.37265122 -0.06667854
0.070606746 0.17506926 0.22931843 0.096806236 -0.52200705 -0.4510302 -0.108863086 -0.0060615484
0.5966061 -0.14681813 0.26871127 -1.0247164 0.77346605 -0.8598716 -0.13869517 0.094250746
-0.28086922 -0.15469487 0.0063190195 0.22804685 0.20462798 0.16587095 -0.6259988 0.17041405
0.087683134 -0.18554468 0.25505608 0.15504025 0.07822527 -0.44861108 0.33575168 -0.30993918
-0.1830348 0.31493595 -0.06885703 0.24149536 -0.0139675345 0.15696967 -0.092527606 -0.66410094
0.1328167 0.1572368 0.084432065 0.07361458 -0.3375873 -0.603963 -0.0015542414 0.43683317
0.2546806 -0.41777945 0.09867983 -0.11511579 -0.55591756 0.28108582 0.18287645 0.4833214
-0.10749887 -0.08764814 -0.4852973 0.30256352 0.020548712 0.29456738 0.3178849 0.29895404
0.17697327 -0.0011979932 0.29508552 -0.13742594 -0.13058682 0.056987442 -0.5559193 0.3261753
-0.23829317 0.19716924 -0.39486578 -0.24363028 0.19934367 -0.43747953 0.4968181 -0.1548118
-0.36091927 -0.1759702 -0.57600546 -0.08626203 0.31463358 0.06372935 -0.35631526 0.6406197
-0.30773947 0.04669166 0.087943554 -0.32509 -0.15218306 -0.30262503 -0.20344979 0.21923819
-0.18180655 -0.51071435 0.18009004 -0.17791115 -0.49163112 0.45867476 -0.17249031 0.49391913
-0.24260572 -0.28390735 0.16996132 -0.30760273 -0.4035276 0.4359613 -0.55477875 -0.34618816
0.7160249 -0.5652836 0.20197709 -0.011176069 -0.55475444 -0.13717522 -0.16323858 0.15445192
-0.15070887 0.13012081 -0.48756984 -0.04466081 0.12591536 0.10293116 0.0791957 0.41066414
-0.04234983 -0.2880537 0.35761642 0.2611627 0.15069675 -0.44488552 -0.30779558 -0.501377
-0.94980985 0.21506944 0.0382283 0.13850743 0.10330431 -0.07673965 -0.20597622 -0.010953994
0.10535169 -0.13230206 0.010838214 -0.122220285 0.28797045 0.30546454 0.53849983 0.18319051
-0.044421673 0.16158447 -0.42795444 -0.110980555 -0.106202096 0.016161991 -0.5791012 0.67254096
-0.3590211 0.4782447 -0.17221552 -0.14732268 -0.24075003 -0.3131249 0.6580539 0.15906034
-0.36638302 -0.17432548 -0.3158725 -0.057182666 0.23278186 -0.5457658 -0.19673893 -0.2965553
-0.32115236 0.3013791 0.2442248 -0.6368516 -0.26232257 0.2811254 0.15168133 -0.16868255
0.024149809 0.0895132 -0.46959934 0.25969252 -0.6827824 0.13401058 0.46352917 0.122015245
-0.04809751 -0.63055277 0.09706924 -0.4479006 -0.006650783 -0.30851692 -0.20697841 0.4985239
0.5207656 0.17224595 -0.5073218 0.1582099 0.16887152 0.42447853 -0.30358857 0.088711634
-0.56801593 0.0048313583 0.30451685 -0.1113003 -0.16336194 -0.43501467 -0.0017840602 -0.29698205

conv1.bias f4 [32]
00000000: d8fd 7f3d cbef 3cbf 46a7 c8be 370e e7be
00000010: a236 c0be 8834 963d 2b58 16bf 0661 2cbf
00000020: da02 3fbe 01a9 b8be 6bf4 14bf 7390 f9be
00000030: 231f 25bf 1831 91be c410 11bf 0e89 2ebf
00000040: 467d a4be 4422 34bf ca54 12bf 1787 d7be
00000050: f4c8 c1bd 542a e7be 3fb8 b43d fee6 e9bd
00000060: 1bf2 db39 2e14 13bf d21e a93e 1e5b 8fbe
00000070: 7e2e 26bf f379 2fbf 82d2 08bf 9ee2 3fbc
0.062497944 -0.73803395 -0.3919012 -0.45128033 -0.37541682 0.07334238 -0.58728284 -0.67335546
-0.18653432 -0.3606644 -0.5818545 -0.48743019 -0.64500636 -0.28357768 -0.5666621 -0.6817788
-0.32126826 -0.70364785 -0.5716063 -0.42095253 -0.09462157 -0.4514948 0.08824205 -0.114210114
0.00041951318 -0.57452667 0.33031327 -0.27999204 -0.6491469 -0.68545455 -0.5344621 -0.011711745

conv2.weight f4 [32, 32, 5, 5]
00000000: 88f7 b33c 27b2 99bd b884 83be 2e62 de3e
00000010: 159c bfbe 0878 9bbe 7223 41bd 2b7e 34be
00000020: b36f 233e 7153 bc3c e10c 653d e43f a83c
00000030: c4ca 7abe 3724 04be 1d3c c7be 2616 aebe
00000040: bdaa 18be 2e69 e4be c601 3c3e 3289 4dbd
00000050: 2922 7c3e 557c 7dbe a71b 2a3e 4d9c f63d
00000060: f1bf 24bf ae45 c73e 7a24 21bf 5e27 1c3e
00000070: 0a43 4dbe 0b33 be3d cfab f03e 4c96 39bc
00000080: 73e0 61bd 62bc 033f 312b 5fbe 4717 4fbe
00000090: 36d4 4ebe 6cae 033c fdde 2bbe d8ab c13d
000000a0: 1ccb 4abf 2588 32be 89fc e63e 987b e73d
000000b0: f875 033f f6ff ef3d 9d39 ce3e f7b6 cf3d
000000c0: fda0 e93b 5cd4 6b3e d38a 78be 193a bebd
000000d0: 025a 31bd a994 c4bd cc0e 9f3e 367e 303e
000000e0: 581d 443e afc3 06bf 38fb b63d f10d 0c3d
000000f0: d961 8dbe cf73 6c3e 9438 263e cf30 99bd
00000100: d301 ab3d 5429 9bbe f653 a23d 38b1 673d
00000110: 0266 7e3d 2e10 9a3e 053a 8cbe 928d dbbe
00000120: ebc1 f33e c3ec 57bd 4b45 cfbe 09eb 0ebf
00000130: e938 e8bd 9e3f 2e3e cf38 a2bd 41a5 28be
00000140: 2cdd e8be b622 00bf b5ba fbbc ac3b fd3e
00000150: 676b d8be 28f3 20be c17d b73b d73e 89be
00000160: 1ec6 25bd ec1f 5abe 5b73 6f3e a201 5f3e
00000170: b18b e13e 9321 22be d39c d7be a450 da3e
00000180: bd5c e9be 5728 e43d d7e4 b93d 0a4b 46bd
00000190: 483d 8e3e 0e29 8cbd efba 073e 3d45 a9bd
000001a0: 1dcb 1bbe d6c6 25bf 7644 21bd 8b66 093e
000001b0: ff4e 56be f740 fc3e 9a8a fe3d 6490 8e3e
000001c0: fcd8 8abe 12c6 c5bc 8521 523d bdf6 f83d
000001d0: b715 f2be 46cd 3e3d 477c a9bd 4a83 063e
000001e0: 4c2e 803e 58eb fa3e fe4e efbd 3738 5ebe
000001f0: 67c6 1fbe 5db1 fd3e 43ec 3cbe 75e9 a53e
00000200: 9b15 343c 0325 253e ff26 8cbd 2d25 5ebe
00000210: 6bb1 913e 978d 173d 074d fa3e f136 b83d
00000220: 5461 29bc 47f3 af3d 9380 f2be d144 02be
00000230: db5f 4fbf a6bd 29be 46e5 3a3d 815f 043f
00000240: e223 50bd a0e6 26be b864 9dbd d3ff 9bbe
00000250: ab8f fe3e 49fd 01bf 0fce aebd 7b73 923e
00000260: 3307 f43d f62e c5be 8115 933d e7d8 8dbe
00000270: 740c 043e fd49 e8be 6a12 043f 3614 51be
00000280: 29b1 eabe c8fd 8cbe 0935 32bf 46db 883e
00000290: 1531 b83e 1099 003f e6b9 1bbf 30ee 673e
000002a0: a4d0 b23e 7ad4 01bd 24f0 d63e 3472 16c0
000002b0: 14c1 063e f01e cfbe b063 993e 6c3d 0abd
000002c0: e406 bcbd 75e2 b23e c09d 83be 01d0 763e
000002d0: 6e70 b2be ddef 87be e612 36be bdb3 6ebe
000002e0: aaf0 1abe a7a3 383e a466 793e 6340 5cbf
000002f0: 4a4b c23d a586 debe 2260 cebe 3cc9 56bf
00000300: ca68 d53e fd3f b13e 14d5 ba3e 6163 14be
00000310: 545c 803e b4b0 9cbe 3116 c2be 718a 1d3d
00000320: 6de4 063e 6732 6f3d 4c67 ab3d 7b42 3abe
00000330: 9e85 663e 370d 9fbf a555 f0be ed54 53be
00000340: 8e4c 39be 3dd8 fd3e 68ff adbe 15c9 eebe
00000350: c1dc 02bd 06ee 38be 9f41 4e3e 0c80 793b
00000360: dbe1 01bf 312b a9be 4339 6ebd 6030 ed3e
00000370: 94aa 0abf 8ab4 983e bb01 08bf 1f2e 883d
00000380: 1b91 3d3e f1dc 003f f445 243e 2878 fbbd
00000390: 74d6 003d 2b56 babe 247e 34bf bc2e 913d
000003a0: 5fe8 02bf fa38 703d f3e8 45bf 67b0 0b3f
000003b0: 8788 15bf fcb8 cc3d 7927 013f b259 5f3d
000003c0: 82ff 9f3e a886 e7be f4bb 0f3f a70e 50bf
000003d0: 1e48 bdbe db62 183e 81c9 68be 930a 18bd
000003e0: 0601 c6be ec83 2abf f487 fabe 579a 0ebf
000003f0: 50ed 1f3d 51e9 fdbe f9df 3fbf 5ffc ba3a
0.021968618 -0.07504683 -0.25687194 0.4343428 -0.3742377 -0.30365014 -0.047152944 -0.17626254
0.15960579 0.022989007 0.055920485 0.020538278 -0.24491411 -0.1290444 -0.3891305 -0.34001273
-0.14908881 -0.44611496 0.18360052 -0.050179668 0.24622406 -0.2475446 0.16612111 0.12041531
-0.6435538 0.3892035 -0.62946284 0.15249392 -0.20045105 0.092870794 0.4700608 -0.0113273375
-0.055145692 0.51459324 -0.2179382 -0.20223723 -0.2019814 0.008037191 -0.16784282 0.09456605
-0.7921617 -0.17434748 0.45114544 0.113028705 0.5135188 0.117187425 0.4027833 0.1014232
0.007129787 0.23030227 -0.24271707 -0.09288425 -0.04329873 -0.09598667 0.31065977 0.17235646
0.19151819 -0.5264234 0.08934635 0.034192983 -0.27613714 0.23091052 0.1623252 -0.074800126
0.08349957 -0.30304968 0.079261705 0.056565493 0.062109 0.3009047 -0.27388015 -0.42881447
0.47608885 -0.052716028 -0.40482554 -0.55827385 -0.1133898 0.17016456 -0.07920992 -0.1646929
-0.4548124 -0.50052965 -0.030728677 0.4945959 -0.4226944 -0.15717757 0.005599708 -0.26805755
-0.040472142 -0.2130124 0.23383848 0.21777967 0.4405189 -0.1583312 -0.42111835 0.4263965
-0.45578566 0.11140507 0.09076851 -0.048411407 0.2778113 -0.06843768 0.13254903 -0.08265159
-0.152142 -0.64756525 -0.03937193 0.13418023 -0.20928572 0.49268314 0.1242878 0.27844536
-0.2711867 -0.024142299 0.051301498 0.121564366 -0.47282192 0.046582483 -0.08275657 0.1313602
0.25035322 0.49007678 -0.116849884 -0.21701132 -0.15603028 0.4954938 -0.18449502 0.32404676
0.010991479 0.161274 -0.068433754 -0.21693869 0.28455672 0.037000265 0.48886892 0.08994854
-0.010338146 0.08591323 -0.4736372 -0.12721564 -0.8100564 -0.16576251 0.04562881 0.5170823
-0.05081547 -0.16298914 -0.07685226 -0.30468616 0.49718985 -0.5077711 -0.08535396 0.2860373
0.11915436 -0.3851239 0.07181836 -0.27704546 0.12895375 -0.4536895 0.515906 -0.20417866
-0.45838287 -0.2753737 -0.69612175 0.26729792 0.35974947 0.50233555 -0.60830534 0.22649455
0.34924805 -0.031696774 0.41980088 -2.3507204 0.13159591 -0.4045329 0.29958868 -0.033749983
-0.09181002 0.34938398 -0.2570629 0.24102785 -0.34851402 -0.2655019 -0.17780647 -0.23310752
-0.15130869 0.18031178 0.2435556 -0.86035746 0.094870165 -0.434621 -0.4030772 -0.8390081
0.4168151 0.34619132 0.3649069 -0.14491035 0.2507044 -0.30603564 -0.37907556 0.038462106
0.13173075 0.058397677 0.08369312 -0.18189423 0.22511908 -1.2425908 -0.46940342 -0.20637865
-0.1809561 0.4957904 -0.33983922 -0.46637788 -0.03194881 -0.18059549 0.2014222 0.0038070707
-0.50735253 -0.33040765 -0.058160078 0.4632597 -0.5416653 0.2982524 -0.5312764 0.06649422
0.18512385 0.5033713 0.1604231 -0.12278777 0.03145452 -0.36393866 -0.70504975 0.07088992
-0.5113582 0.058648087 -0.7730858 0.54566044 -0.5841145 0.099962205 0.50450855 0.0545289
0.31249624 -0.45219922 0.5614617 -0.8127236 -0.36969084 0.1488146 -0.22733118 -0.03711946
-0.38672656 -0.66607547 -0.4893185 -0.55704254 0.03904468 -0.4959207 -0.7495113 0.0014265886

conv2.bias f4 [32]
00000000: 38a1 c0bd 4ff5 cdbe 9c08 8fbe d678 81be
00000010: 1b08 8cbe c20b ee3d fed2 55bd 9aee 0dbe
00000020: 243f 8d3d c778 6abe 5131 883e 509d 113e
00000030: 05ec 103e 1e64 e6be b417 453e f7ab 2d3d
00000040: 6f41 dcbe 043b 1dbe 058f c3be d40f 223d
00000050: 8860 3abd df88 febc dcdd 163d 80f2 d1be
00000060: 0cb8 80bc 87d9 2dbe cf55 15be 00b7 4a3c
00000070: 540b d03d 98fd 6a3e 40bb e4be b03f bcbe
-0.0940575 -0.40226218 -0.27936256 -0.25287503 -0.27349934 0.116233364 -0.05220317 -0.1386055
0.06896809 -0.22897635 0.26600125 0.14220166 0.14152534 -0.44998258 0.19247323 0.042400327
-0.43018672 -0.15354544 -0.38195053 0.039565876 -0.045502216 -0.031071125 0.036832675 -0.41005325
-0.01571276 -0.16977511 -0.14583515 0.012372732 0.10158411 0.22948301 -0.4467411 -0.3676734

fc1.weight f4 [42, 1344]
00000000: 5d53 acbc 875f 10bd 8364 873c f68e ae3c
00000010: 05cd 95bc 26d2 363a 6699 fdbc 737c 0bbd
00000020: 35a0 e43c 09f2 0bbd 4e38 563c c8a9 54bc
00000030: 60c0 46bd ab98 3d3c dd87 90bd 4b6f cdbc
00000040: de2a 60bd 7e13 74bd efb7 7a3c 6a4e 833c
00000050: f256 07bc 44db ffbc eca8 893b a6c0 3f3c
00000060: 54a6 86bb 8c2e a63c dc5b 6cbd a777 6ebc
00000070: 8638 00bd 0131 583c 9721 51bd c8e0 94bc
00000080: 830d edb9 565c 063a f6db b5bc 8c87 0bbd
00000090: d1b7 993b b304 bd3c ccf8 52bd 73ff acbc
000000a0: d271 8ebc 4682 823a eb9f aebb 8348 2cbd
000000b0: 6a5c 18bd 0edf 23bd d32d 543c e1ea a3bc
000000c0: e27e d3bc 7cc0 4dbc 2942 3e3d e70f dabc
000000d0: 57e8 0ebc 464c 9dbd 6736 d3bb c4b4 6cbc
000000e0: 1d63 b5bc e0d4 bdbb acea d4bb fbfc 18bd
000000f0: 08f4 9dbd 811c adbc c121 033c b4ee 6fbd
00000100: 868c 0bbd b78d 8c3c 6726 eabc 2a2b b7bc
00000110: 5ec7 12bb b164 ebbc 7b9a 62bb c46a d5bc
00000120: 577f dbbc 2c43 4bbc b177 743a bc11 54bd
00000130: 4d44 99bc 11d5 79bb 2e3e 98bd 6726 16bd
00000140: c271 ecbc 6f64 753c 8e6e 7d3c c1dc a3bc
00000150: 1318 eb3c f7fe 53bd 0b2d 09bc 6f4b 5c3c
00000160: 3b20 73bc a77f 793b 43df dcbc 68a1 5dbc
00000170: 3d82 96bd 08ca 1a3d df51 07bd a5ec b3bc
00000180: a586 47bd 0ef3 c63a a7e8 01bc 4863 45bd
00000190: eebc 21bb a072 5abc baa2 cfbb 2530 4cbd
000001a0: 7604 18bb 57ec 9e3c 166d a1bd faf0 a4bc
000001b0: 1b40 56bb a51f 0b3d 96c4 4ebc 7466 cbbb
000001c0: a251 c9bc 0227 66bc 556d 4fbd 33a5 74bc
000001d0: 9cca 70bc 5d3a 87bc 1799 17bb 2bfe 603c
000001e0: 25be f93b e6d3 8ebc c108 06bd 4ede 8f3c
000001f0: e3da 4dbb 99d9 c4bb ce04 73bd a5d7 31bc
00000200: fd03 67bc 4765 9ebc 6b39 7ebc c1f9 ce3b
00000210: a187 90bc 38d2 58bd 8768 053b 3551 df3c
00000220: 6f51 41bc 624b 7dbd 6b87 c8bc 9bd6 b2bb
00000230: 22b1 53bc ccba c03b 3d2c b8b9 b401 b5bc
00000240: 19e2 3dbd 269f a4bc 8a9a 0d3d f2e0 29bd
00000250: ac5f a5bc 7aa3 ebbc 02b5 95bc 79f4 503c
00000260: a0a1 d5bc 0ca5 beb9 2b1d 97bc c7de c0bc
00000270: 1cb1 cd3b 3014 a2bc e3a1 30bd 767b 41bd
00000280: e667 18bb ecc4 55bc 7d12 213c 640f 64bd
00000290: e1e7 dabb 9bcb 20bd fd4e ecbc 039b c6bc
000002a0: 5587 7bbc 945d b9bb 79d4 6fbc 88db 35bc
000002b0: e78d fcbc 8e4e cebc b2e9 c9bc ce9a 4abd
000002c0: 479e 5abd 86aa babc cfe2 f9bc 1e22 3b3c
000002d0: 9778 83bd a8d2 3ebd dc4e 74bd c9ea 32bd
000002e0: 55a0 3bbb 1462 c9bc 462d 09bd 7920 e7bc
000002f0: a888 cdbc e7e3 2fbd c125 39bd 55bf 34bc
00000300: 05b5 c4bc 556c 4dbc 790b 063b 57fe 62bd
00000310: 3343 fcbc 2913 acbd c877 2bbd 3d5a e13c
00000320: 200a 64bc 36d5 c13c 8229 79bd 52dd 22bd
00000330: a335 9a3b 346d 54bd a6df b0bc cd35 e3bc
00000340: 9d55 3abc 70fd 00bd 7096 8dbc aa10 b83a
00000350: f65b 96ba 773a 103c ab65 6fbd 3403 483b
00000360: a412 3bbd 8536 65bc 407d afbc 61ef 03bd
00000370: 9a84 3c3c c98e 013c 7100 263c a5b4 553c
00000380: b214 56bc e5fb 333d 4343 823c 64b4 b6bc
00000390: be99 eb39 05df e9bc e494 d2bc 32f9 f7bc
000003a0: 0e47 e1bc 29a0 8fbc 294b 95bb 55f0 b4bc
000003b0: 0dec 99bb 2b67 9e3c 2565 e9bc 3c2a 8dbb
000003c0: 4c75 083c ee8a fdbc e2d7 8f3b df95 893c
000003d0: 89e2 5bba 6f21 90bc 5924 82bc 3e40 c83b
000003e0: 9ff4 fa3c f863 353c b656 a03b c35a e4bc
000003f0: 282b dfbc 416c 8cbc 8ada 353d 454a 8c3c
-0.021035844 -0.035247352 0.01652742 0.021308403 -0.018286237 0.00069740636 -0.030956935 -0.03405423
0.027908424 -0.03416637 0.0130749475 -0.012979932 -0.048523307 0.011572043 -0.07057164 -0.025077483
-0.05472838 -0.0595889 0.015302642 0.016028602 -0.0082604755 -0.031232484 0.0042010453 0.011703646
-0.0041091833 0.020285867 -0.05770479 -0.0145548945 -0.031303905 0.013195277 -0.051057424 -0.01817359
-0.0004521423 0.00051254535 -0.022199612 -0.034064814 0.004691102 0.02307353 -0.051506802 -0.021117901
-0.017388258 0.0009957037 -0.0053291223 -0.04206134 -0.037197508 -0.040007643 0.0129503785 -0.02000946
-0.025817338 -0.012558099 0.046449814 -0.026618911 -0.008722386 -0.07680564 -0.0064456942 -0.014447395
-0.022141987 -0.005793199 -0.0064977016 -0.037350636 -0.07712561 -0.021131756 0.008003653 -0.058577254
-0.03406956 0.017157419 -0.028582765 -0.02235945 -0.0022396664 -0.028734537 -0.003457694 -0.026051886
-0.026794119 -0.012406152 0.0009325697 -0.051774725 -0.018709326 -0.0038121382 -0.07433735 -0.036657717
-0.028862838 0.0149775585 0.015468253 -0.020002725 0.028698003 -0.051756825 -0.0083725555 0.013445719
-0.014839227 0.0038070471 -0.026961928 -0.013527252 -0.0734906 0.03779033 -0.033037063 -0.021963427
-0.04871239 0.0015178637 -0.007929004 -0.048190385 -0.0024679261 -0.013332993 -0.006336537 -0.0498506
-0.0023196018 0.019399805 -0.078821346 -0.020134438 -0.0032692018 0.033965725 -0.012620112 -0.0062072817
-0.024575058 -0.014047386 -0.050641377 -0.014931965 -0.014696743 -0.016507322 -0.002313202 0.013732473
0.007621544 -0.017435025 -0.032723192 0.017562058 -0.0031410984 -0.006007385 -0.059330754 -0.010854636
-0.014100072 -0.019335402 -0.015516619 0.006316394 -0.017642798 -0.052934855 0.0020356493 0.027260402
-0.0117992 -0.06183947 -0.024478635 -0.005457712 -0.01292065 0.005881643 -0.00035128175 -0.022095539
-0.0463582 -0.02009542 0.034571208 -0.04147429 -0.020187221 -0.028764475 -0.018274788 0.012753599
-0.026078045 -0.00036362594 -0.018446526 -0.023543729 0.0062772166 -0.019785017 -0.043123137 -0.047236882
-0.0023255288 -0.013047438 0.009831068 -0.05567874 -0.006680474 -0.039256673 -0.028846258 -0.024243837
-0.01535209 -0.0056569073 -0.01463806 -0.011099704 -0.030829383 -0.025183942 -0.024647567 -0.04946404
-0.0533736 -0.02278639 -0.030503659 0.011421708 -0.06419485 -0.046587616 -0.05964552 -0.04368094
-0.00286295 -0.0245829 -0.03349044 -0.028213726 -0.025089577 -0.042941954 -0.04520202 -0.011031945
-0.024012098 -0.012538035 0.0020453616 -0.05541834 -0.030793762 -0.08402092 -0.04186228 0.02750885
-0.01391843 0.023661237 -0.0608306 -0.03976185 0.004706101 -0.051861957 -0.021591019 -0.027735615
-0.011372951 -0.031491697 -0.017283648 0.0014043052 -0.0011471498 0.008803002 -0.058446568 0.0030519487
-0.045672074 -0.013990049 -0.021422029 -0.03221071 0.011506224 0.007907578 0.010131941 0.013043557
-0.013066458 0.043941397 0.015901214 -0.022302814 0.0004493724 -0.028548727 -0.025705762 -0.030270193
-0.027499702 -0.017532425 -0.004556079 -0.022087255 -0.004697329 0.019336304 -0.028490612 -0.0043080132
0.008328747 -0.030950036 0.004389749 0.016795097 -0.00083879434 -0.017594067 -0.015886473 0.006111174
0.030634223 0.011071198 0.0048931492 -0.02787531 -0.027242258 -0.017141463 0.04439787 0.017125258

fc1.bias f4 [42]
00000000: 7349 5fbd e545 813e be45 64be 3fa3 64bd
00000010: 49dd b0bd 9827 51be 968d d8be 3548 353e
00000020: d667 edbe cf90 30bd 629d 0abe 435c b6be
00000030: a3ce a53e cb1d 583e c770 51be 62af 2a3e
00000040: e0e6 b13d 5cc4 1fbd 4272 213e 9d3a b1be
00000050: bc28 34bd 6fa6 4abd ac28 96be f639 023f
00000060: 769a c9be 504a 90be 4919 a0be d38d 93bd
00000070: 15c8 a8be 5a4a fb3c fcd9 b6be e6fc 64be
00000080: ffbc 0e3f 2710 603e 2db9 25be 75e2 a93e
00000090: 7291 143e 6fc8 063e c75b 5c3e 392b 74bd
000000a0: b26b 64bc 641b 8cbd
-0.054513406 0.25248638 -0.2229223 -0.055819746 -0.08635957 -0.2042526 -0.42295521 0.17703326
-0.46368283 -0.04310685 -0.135366 -0.35617265 0.32384214 0.21105115 -0.20453177 0.16668466
0.08686614 -0.039005622 0.15766242 -0.3461503 -0.04398416 -0.04947513 -0.29327905 0.5086969
-0.39375657 -0.28181696 -0.3126929 -0.07204785 -0.3296515 0.030675102 -0.35713184 -0.22362098
0.55757135 0.21881162 -0.1618392 0.33180586 0.14508608 0.13162397 0.21519385 -0.059611533
-0.013941692 -0.06841162

fc2.weight f4 [42, 42]
00000000: 5a86 233e 45be cabc 7f8d cd3c 4533 243d
00000010: 54f9 403e c993 e2be 9c7b 5d3d 39cf e8be
00000020: 9136 8f3e eec3 92bd 334a d93d 0cbf f93e
00000030: ed11 f4be 4ffa 56be bd1d b13e 1176 d93e
00000040: 357f e83d c5dd ecbd e51d 713e d099 2ebe
00000050: 7f28 583d 569c ef3c 70c8 b03c e447 04be
00000060: 1b10 88be 9c16 95bf 9309 1c3e 9108 f6bd
00000070: 4a6c 593e 816e 27bd 91d7 023e 03ab 05bf
00000080: 912e 0fbe e71a 6cbe 9b43 ffbe 55df 79be
00000090: b5d7 02be 2731 7ebd e555 14bf 87bd b4bc
000000a0: abfe 75be 18be 82bd e142 e7bc be13 10bd
000000b0: 5b22 bcbe 9e1e 833c dbd8 a93d 9a44 b8bf
000000c0: 86e0 8b3e b191 823e ace0 bfbe 5d54 d0bd
000000d0: 3c5e 213e b56c d8be e6b8 6abd 59d1 10be
000000e0: 31d6 3ebd a07f 61bd 07c3 c1be 02d5 b53d
000000f0: 9394 8bbd 8a5f 16bd e9ea 6dbd c616 d33b
00000100: b85c e23e 0f75 9f3d 3ce1 83bd 5a24 04be
00000110: de1c f63d 6ff9 68bc 0d34 7f3e af59 1ebc
00000120: 7a41 1dbe 4bfe 433e 2074 823e b81a 84be
00000130: 02c8 a6be d2cc 05bd af56 953c db7c 16bf
00000140: a3e0 04bd a142 963c 2906 98be 550e 093e
00000150: d8bb c9bc 500b 12bf be74 82be eca7 d63c
00000160: 137d 9e3c 068d 50be 0350 25be 5488 983d
00000170: f8f1 0dbf 9747 50bd 6145 33be d125 8abc
00000180: f054 273e c822 aabc a24e bb3d 9956 53bd
00000190: a2a5 f83d 0284 623d 4e59 f0bc 0a77 0abe
000001a0: 430c 9d3d 00ce 083d ebf2 83ba 9158 043e
000001b0: ca91 a4bd 1b38 263e 6e7c e83a 2e7d 98bd
000001c0: eeec adbd 9290 983d 08e2 78be 6967 81be
000001d0: d349 5c3c 4f83 553e 6dc9 d03e aff1 e238
000001e0: 2b83 73bd 3c43 203e 8b11 97bd a084 a23d
000001f0: c8b6 2cbd 1179 00be 0cd5 123d 6de5 003e
00000200: ec62 84bf 27cb 48bd 35ea 94bd b485 4c3d
00000210: c785 15bf 06c0 b23d 3ded b63e 723e 3f3d
00000220: 6311 3ebe ad4e fabe 5edb a63d 4cf6 6bbc
00000230: c287 10bd 8c64 fcbb 6d96 e43d 99b6 93bd
00000240: caf5 25be b17f 41bd b3d1 f1ba 9f0a f5bc
00000250: bb35 113e b9d1 12bf 5322 47be 3afc 9bbc
00000260: 5c0a ee3d c253 8ebc f7d4 89be 7cbd 7f3e
00000270: be0f 0cbf 2dcc 05be a15b 183d 12dc f03d
00000280: 0a81 0abc 8cb4 6bbe b5ad ecbe 4383 06bd
00000290: 02b2 85bd 4313 7e3b 9838 413e 35b1 aabd
000002a0: 0b51 edbc 4506 a2be d87f af3c a542 88bd
000002b0: bd07 f13c 2f95 8a3e fb03 283d 03b5 0abd
000002c0: d062 bebe 394d 8ebd 2e20 183e c87d cbbe
000002d0: 3c1a 9cbe e059 c1be 3048 a3bd 5f29 26be
000002e0: d001 953e e059 00be 3862 983e 0171 41bf
000002f0: 80b2 553d cf80 d13d 1317 a3be a4ae 59bc
00000300: 80ea c7be d211 93be a933 3bbf 2ffd 783d
00000310: 7959 963e 770d cbbd b4cb 073d 12fb a1be
00000320: 00eb d0bd b2ad 44bf a099 e4bd 55a3 76be
00000330: ffe6 42bd 8c1c cb3e 7bf6 cf3c c0c4 a73d
00000340: 0189 d1be 61a7 3d3d b73f d8bc 72b0 c53c
00000350: 1a2e babe 734a e53d e871 ee3c 059e 2abd
00000360: 255f 00bf 6887 b43d 0c66 5f3d c5d5 fb3d
00000370: 6bc9 6b3e 10dc 81bf 19d1 b33d 01e8 94be
00000380: 692f 03be 8f62 1b3d d66d afbd 9d3d 34bd
00000390: 9cef e0bd 3155 4ebe b25e 1dbe 68ce 193e
000003a0: deb3 073d 5be3 3c3e 5b22 fbbe a4a5 32be
000003b0: 6de0 9abe 8955 31bd 8de4 90be da4c a3be
000003c0: a914 3dbe 3ec8 21bf b33c 3cbe 0a25 303e
000003d0: 1c3e b0be 75db 10bf 6257 c03e b0a9 9fbe
000003e0: 0e54 4abe 4b89 d53c 3a9b fabe 3191 ccbd
000003f0: e4d7 30bd 7f50 d53d c602 673e 1985 b63d
0.1596922 -0.02474893 0.025091885 0.040087957 0.18845111 -0.44253376 0.05407296 -0.45470598
0.27971318 -0.07166277 0.106098555 0.4877857 -0.47669926 -0.20993923 0.34593 0.4247289
0.11352388 -0.11565737 0.2354656 -0.17050862 0.052772995 0.029249351 0.021579951 -0.12918049
-0.26574787 -1.1647525 0.15238027 -0.12013353 0.21232715 -0.04087687 0.12777545 -0.5221407
-0.13982607 -0.23057137 -0.49856266 -0.244016 -0.12777598 -0.062058594 -0.57943565 -0.02206303
-0.2402293 -0.06383914 -0.028230133 -0.035175078 -0.3674496 0.01600581 0.08293315 -1.4395936
0.27319735 0.2550178 -0.374761 -0.10172341 0.15758604 -0.42270437 -0.05730524 -0.1414236
-0.046590988 -0.055053353 -0.37844107 0.08878519 -0.06815448 -0.036712207 -0.058085356 0.006441924
0.44211364 0.07785999 -0.064394444 -0.12904492 0.12017225 -0.014219626 0.249222 -0.009664937
-0.15357009 0.19139974 0.2547922 -0.25801635 -0.3257447 -0.032666035 0.01822981 -0.58784264
-0.032440793 0.018342318 -0.296922 0.13384373 -0.024625704 -0.5704851 -0.25479692 0.026203118
0.01934675 -0.20366296 -0.16143803 0.074478775 -0.5544734 -0.050849523 -0.17506935 -0.016863735
0.16340995 -0.020768538 0.091458574 -0.051596258 0.12140967 0.055301674 -0.029339459 -0.13521972
0.07668354 0.033399582 -0.0010066902 0.1292441 -0.080356196 0.1623234 0.0017737278 -0.07445751
-0.084924564 0.074494496 -0.24304974 -0.25274208 0.013445335 0.20850872 0.40778676 0.00010821537
-0.059451263 0.15650648 -0.07376393 0.079354525 -0.0421665 -0.12546183 0.03584771 0.12587519
-1.0342689 -0.049021866 -0.07271234 0.049932197 -0.58407253 0.08728032 0.35727873 0.046690412
-0.1856132 -0.4888815 0.0814731 -0.0144019835 -0.03528572 -0.007702416 0.11161504 -0.07212562
-0.16207042 -0.047240917 -0.0018449336 -0.029912291 0.14180653 -0.5735126 -0.19446687 -0.01904117
0.1162307 -0.017373923 -0.26920292 0.24974626 -0.5471152 -0.13066168 0.03719676 0.11760725
-0.008453617 -0.23018092 -0.46226278 -0.032840025 -0.06528093 0.0038768805 0.18869245 -0.08334581
-0.028969308 -0.31645408 0.021423265 -0.066533364 0.029422635 0.27066943 0.04101942 -0.033864032
-0.37184763 -0.06948323 0.14856026 -0.397444 -0.30488765 -0.37763882 -0.07972753 -0.1622672
0.29102945 -0.12534285 0.29762435 -0.75563055 0.052172184 0.102296464 -0.31853542 -0.0132862665
-0.39046097 -0.28724533 -0.731257 0.06078833 0.29365137 -0.099146776 0.03315325 -0.31636864
-0.10201073 -0.7682754 -0.11162114 -0.24085744 -0.047583576 0.39670217 0.025386086 0.08191824
-0.40924838 0.046302203 -0.02639757 0.024131987 -0.36363298 0.11195841 0.02910705 -0.041654605
-0.5014518 0.08814889 0.05454068 0.12296633 0.23026054 -1.0145283 0.087801166 -0.29083255
-0.12811054 0.03793579 -0.085658714 -0.04400407 -0.10983202 -0.20149685 -0.15368155 0.15020144
0.03313052 0.18446104 -0.4904965 -0.17446 -0.30249348 -0.043294463 -0.2829937 -0.3189457
-0.18464912 -0.6319617 -0.1838253 0.1720163 -0.34422386 -0.56584865 0.37566668 -0.3118415
-0.19758627 0.026066443 -0.48946553 -0.099886306 -0.04317464 0.10415744 0.22559652 0.08912105

fc2.bias f4 [42]
00000000: 9dda 20bd edcc 4b3e 2105 c33d 0ff1 aa3e
00000010: 2ce6 04bf 16b7 d1be e14a 28bd 837f f13c
00000020: 1c0c bebc b59d ef3e 7313 a5be b896 7fbe
00000030: 48be bebe e472 b73e e919 453e 3181 e73e
00000040: ab5e 1f3e 8809 763f 6aea 843e ebf3 2dbd
00000050: e7ea bf3e 6f90 7ebe f782 73be 972c 73bf
00000060: 575d eebd 60c3 24bf 9f10 bd3e e523 ba3c
00000070: 6d35 d4be f3a9 46be 6406 cb3d 443e 88be
00000080: 1a17 98bf 748e 47bd 5e8d 64bd 3d32 843d
00000090: 557f d33e f224 1abf f66e 14bf 3f73 e0bd
000000a0: 18f7 89bf 3202 23bf
-0.039270986 0.19902392 0.09522463 0.33387038 -0.51913714 -0.40959996 -0.041087035 0.029479748
-0.023199134 0.46800008 -0.322414 -0.24959838 -0.37254548 0.35829842 0.19248165 0.45215753
0.15563457 0.96108294 0.25960094 -0.042468946 0.37483904 -0.24859785 -0.23780428 -0.94989914
-0.11638897 -0.6436062 0.36926743 0.022722194 -0.4144701 -0.19400768 0.09913328 -0.26610005
-1.188205 -0.04871984 -0.05579888 0.06454895 0.41308084 -0.60212624 -0.5798181 -0.109594814
-1.0778532 -0.63675225

out.weight f4 [7, 42]
00000000: e813 63bc 7632 a73d c365 a0bc 9bb9 debd
00000010: 4703 9ebe dcc6 d63d 8e30 ec3c fe02 7a3c
00000020: ed8b f53c 8c99 2a3d 229d dd3d 1621 14be
00000030: 5a19 1bbe 39f7 55bd 34fe a33d 2810 ad3c
00000040: 49e1 0a3e ae79 75bd 488a f63c 3553 9c3d
00000050: 91c8 71be 64e9 f03d 93d6 383d b7a7 77be
00000060: cf58 62be f0ff 543d 4217 6a3d 1b57 3ebc
00000070: ee81 10be 32ab 12bd c506 0b3d 5e8c 55be
00000080: 111c a1bd 642b fa3a 5f79 15be 86cf ebbb
00000090: 6b21 053e 39fd 4bbe a0c1 973d 81b4 5fbe
000000a0: c9b7 c13d 0fc1 5a3e 6428 0abe 814a 5abd
000000b0: 2b2c 603d 1f14 a43d 042d 4dbe 38ce 4c3e
000000c0: 1d08 133e dba4 88bd 112f 943c 26de 003e
000000d0: db75 083d 077b a63c 34e9 e5ba 1767 c5bb
000000e0: 03fe 0b3d 7953 cc3c 78cc 263d f7d3 b8bd
000000f0: 07b8 58be d3c1 0ebe f12a 0abe a25d 65be
00000100: a87c 083d a524 523d e4f7 6a3d f4e3 45bc
00000110: 014e 913c b4ef 793d 3c58 02be 7469 3abe
00000120: 2c73 c6bd e8cb c4bd 8f09 0a3d 4dd0 b9bb
00000130: 72cb 85be f20a b03a 8e34 813d ea85 c8bc
00000140: 39c9 fb3c f296 17be c97b c13d 5a4c a7bc
00000150: 5259 11be ce57 06bd 6da4 503d 3d9f 08be
00000160: dd35 7cbe e7a4 c8bc cd58 11be bcd9 0e3c
00000170: d27f 253d 60c7 8f3d e13f 8fba 2c39 b83d
00000180: c06e f03c e69a cdbd 34c8 ac3d 5278 dcbd
00000190: 6767 20be d70d acbd 8494 943d 122e 243d
000001a0: 5d82 8ebd b34e e83c 1bdb 213c 5c93 a3be
000001b0: cfd0 e7bc f05e 26be 56ff 08bd f9a3 cbbd
000001c0: 5038 903d d35d 3fbe 0bd4 20bd 19d5 8dbd
000001d0: 8905 fbbd d1bb 76be 31ee 9b3d 4ff6 b03d
000001e0: 5211 ac3c 97d6 84be 423c 59bd 2c21 90be
000001f0: 2f96 ac3c 4e49 26be ae1d 843c c415 00be
00000200: 55e9 8ebc 2050 0b3c 10a1 29be e51b 903c
00000210: da05 9abe a8ff ddbb 314e 383c 5bdb 573d
00000220: ad53 6d3d 08ee 9a3c 6043 113d b83d 11be
00000230: 29f0 06bd 480f c53c c00e 2f3d 4431 14be
00000240: 23c4 2fbe 0a62 e7bc 0eee 1fba f1d3 303b
00000250: 9943 0dbd f6c5 4c3c 5aa3 37bd 5592 973c
00000260: a2d3 2abe ef85 993d 5fe7 7bbd d976 0cbe
00000270: fb46 173d f1ce ffbd 13a2 ae3c 065e 79be
00000280: 1f05 2bbe 1762 903d a72f 963d c185 a13e
00000290: c356 96be 0040 85bd c86f eb3d 0c4f 72bd
000002a0: b033 343d 0fef d0bd 5b53 d23d a0ea 053d
000002b0: f371 84be e556 e53d c160 d53d 1fe5 cabd
000002c0: eab1 313d 8084 183d e441 54be c2c5 1cbe
000002d0: 4420 37bd fc62 d6bd 931b c83c 0f31 aabd
000002e0: 8b62 6cbc 55fc 2c3d a892 6abd 5fea 03be
000002f0: 8d27 e4bc 0719 e4bd 4896 8abe ed38 30be
00000300: 680e b63d 6578 a1bb 7d63 6abd 89ae 0d3e
00000310: 4d49 61bb 6b3d cc3c ad77 873c d2ac f43d
00000320: 29f1 553d 406b d2bd 59d2 003e 6177 0a3d
00000330: 0183 023e e603 66bb 3525 e0bd e8c6 0a3c
00000340: 2038 a6bc 458f 0c3e a8b7 88be b81e 143d
00000350: d728 183d 92ad 56bd 521b 2cbe 9c74 15be
00000360: eed8 2ebd 129e 9e3d dffb a43d 28db ed3d
00000370: 66f1 753c 7675 efbd d353 b2bd b838 cfbd
00000380: edd8 bdbc 4a7d 6fbd a856 2cbe fd89 afbc
00000390: 05f3 ffbd df7d 4a3d c98a 72bc 0151 95bd
000003a0: 3dd2 6c3c c863 a43d cdca 99bd 95ec e9bd
000003b0: fade f73c e3fb 47bd 01c9 04be 6110 13be
000003c0: af05 39bb 2687 e53d 8883 de3c 0f44 03be
000003d0: d32b 3b3d 6c86 f43c 98aa 783d ab25 73be
000003e0: 5e7f b63d a258 74be e315 163d 632b 093e
000003f0: 594d b3bd 744b c7bd bfd0 713c d490 0b3c
-0.0138597265 0.081639215 -0.019579774 -0.10875245 -0.30861875 0.10487148 0.028831746 0.015259502
0.029973948 0.04165034 0.10820986 -0.14465746 -0.1514639 -0.052237723 0.0800747 0.021125868
0.13562502 -0.059930496 0.030095235 0.07633058 -0.23611666 0.11763266 0.04512651 -0.24185072
-0.2210419 0.052001894 0.057151087 -0.011617447 -0.14112064 -0.035807796 0.033942003 -0.20854327
-0.07866681 0.0019086418 -0.1459708 -0.0071963696 0.13001029 -0.19920816 0.07409978 -0.218462
0.09458882 0.21362709 -0.1349197 -0.05329371 0.05472962 0.0801165 -0.20036703 0.20000541
0.14358564 -0.06672069 0.01808885 0.12584743 0.03331552 0.020322336 -0.0017540813 -0.006024252
0.03417779 0.024942147 0.04072234 -0.09024804 -0.21163951 -0.13941126 -0.13492943 -0.22399
0.033322006 0.05130448 0.057365313 -0.012078274 0.01773739 0.061019614 -0.12728971 -0.1820429
-0.09689936 -0.096092045 0.033700522 -0.0056705833 -0.2613178 0.0013430996 0.06308852 -0.024477918
0.030735599 -0.14803675 0.09447438 -0.02042215 -0.14194229 -0.03279858 0.05093806 -0.13341995
-0.24629922 -0.024492694 -0.14194031 0.008718904 0.040405102 0.0702045 -0.0010929072 0.0899528
0.029349685 -0.1003931 0.08436623 -0.10765137 -0.15664445 -0.08401077 0.072548896 0.040083
-0.069584586 0.02835784 0.009878899 -0.31948364 -0.02829781 -0.16247153 -0.033446632 -0.09943385
0.07041991 -0.18688135 -0.03926472 -0.06925411 -0.12256915 -0.24095084 0.07613791 0.0864073
0.021004353 -0.2594497 -0.053035982 -0.28150308 0.021067707 -0.16238901 0.016127434 -0.12508303
-0.017445246 0.00850299 -0.16565347 0.017591426 -0.3008259 -0.0067748614 0.011249111 0.052699428
0.057941128 0.01891233 0.035464644 -0.141837 -0.03294388 0.024055138 0.042738676 -0.14471918
-0.17164664 -0.02824499 -0.00061008416 0.0026981796 -0.034488294 0.012498369 -0.04483352 0.018502394
-0.16682294 0.07496249 -0.06149995 -0.13717212 0.036932927 -0.12490643 0.021317517 -0.24352273
-0.16701172 0.07049959 0.07333308 0.3154736 -0.2936307 -0.06506348 0.1149593 -0.059157416
0.043994606 -0.10201847 0.10269805 0.03269446 -0.25868186 0.111982144 0.10418845 -0.09906983
0.043382563 0.037235737 -0.2072826 -0.15309814 -0.044708505 -0.104680985 0.02442721 -0.083101384
-0.014427791 0.04223283 -0.05726877 -0.12882374 -0.02785089 -0.11137586 -0.2706778 -0.17209215
0.088894665 -0.004927682 -0.057223786 0.13836111 -0.0034375966 0.02493163 0.016536558 0.11947025
0.05223194 -0.102743626 0.12580241 0.033805255 0.12745287 -0.0035097538 -0.10944597 0.0084702745
-0.020290434 0.13726528 -0.2670262 0.03616211 0.037148323 -0.052411623 -0.16807297 -0.14595264
-0.04268735 0.07744993 0.08055853 0.11614066 0.015011167 -0.11692326 -0.087073945 -0.1011824
-0.023174727 -0.058469094 -0.16829932 -0.021428103 -0.12497524 0.049436446 -0.014803597 -0.07290841
0.014454422 0.08026844 -0.07509384 -0.114220776 0.03025769 -0.048824202 -0.12967302 -0.14361717
-0.0028232147 0.11207418 0.027162328 -0.12818931 0.04569609 0.029849254 0.060709566 -0.23744838
0.08911012 -0.23861936 0.036641967 0.13395457 -0.08754987 -0.097311884 0.014759242 0.008518416

out.bias f4 [7]
00000000: 0f24 393e 7b42 5b3e 4530 b53e 565d c43e
00000010: 73fe 1d3e 50b0 5e3e 8e4c 863d
0.18080162 0.21412079 0.3538839 0.3835246 0.15429096 0.21746945 0.065575704
